Reinforcement learning/new/data_plot/InmoovGymEnvPPO/InmoovGymEnvPPO_s2/pyt_save/model.pt (torch_old, 49067 bytes, 12 tensors)

log_std f4 [3]
00000000: 0913 5ac0 27fe 5cc0 8fd9 50c0
-3.4074118 -3.4530122 -3.2632787

weight f4 [64, 3]
00000000: 3eab 783e 0ebf 54bd 943c bdbc c5bf 51bd
00000010: 5781 ca3e 0100 a03e 1f6e d83d cc25 34bf
00000020: 2fd7 b43e 671e 69bf 3f0f 823e 71e6 e63e
00000030: c999 a4be 442f 3e3f f9f7 6f3e c824 1b3f
00000040: 1238 823e 9c35 11bf 1639 fcbe b0ac 6f3f
00000050: a2e4 71bf 8366 59be f062 3f3e 8837 533f
00000060: 9b5d cebc d55d 633e 3ff7 b03e 093e d7be
00000070: 744b dfbe d429 46be 0243 24bf afd8 e6be
00000080: 7d8e b03e 8ba0 2f3f 7981 2fbd 965a bebe
00000090: 32d6 df3e f7c4 edbe a055 9dbe fb75 b5be
000000a0: 7a78 88be cc4e 6ebf 0634 7a3d 16c9 963e
000000b0: 8a35 8dbe 4a47 1b3f d030 243e 9124 433e
000000c0: 4d1a 9e3d 4c62 ec3d 39fe 2c3f 481e 263f
000000d0: 18cd ac3e a161 c03e 6a41 94be 1ce5 8b3d
000000e0: 5129 03be 2136 c83e c802 273e d9be 7b3f
000000f0: 5321 843f a526 8bbf f0d2 8b3e 29ba 7e3f
00000100: 07c6 163f a3dd 8fbe a6e0 b73e 4d77 40bf
00000110: ce7e b3bd 4908 873f d7ea 80bf 00b5 6d3f
00000120: fe01 90bf 9f82 193f b405 6abd 9464 ad3e
00000130: baeb cdbd dbc9 85bf 513c 3f3e ddf6 39bf
00000140: 001b 393f 7d38 e33e 4cce 4abf 52ff b93d
00000150: b11b 9c3f c41e 7bbf 19b9 003c 38cf 643e
00000160: 1762 e8be ae3f 37be bd1e 4b3e a1b3 09bf
00000170: 6019 863e 833c 4e3d 19e4 fc3e 31db 6c3e
00000180: 198f 30bf 7b59 d9be 52c1 60bf a4be 0abf
00000190: e24c 38be c1cc c5bd 0674 43bf 05f0 ac3e
000001a0: 2ca2 543f cbbb a33e 8a0e d83e a972 d63e
000001b0: 2647 56bf f7c7 a33e 2822 4b3f 9ee4 14bf
000001c0: df95 85be 362e a8bd f844 86bf 544a b23d
000001d0: 68e5 fe3c e52e 883f f127 19be 3af6 233f
000001e0: f97c df3e f053 413e ddba 53bf cff2 453f
000001f0: 11a0 e83e b404 5cbf b369 58bf 2dd7 1b3f
00000200: c800 63bf 132a 4abf 851c dabe defb ef3e
00000210: 1153 d4be 7bcb 2cbf 260c a53e d42b d13e
00000220: df07 163e f5ca 65bf b895 553f 94cf 82be
00000230: 6ddc 60bf 027d 19be 512f ef3e ce0d db3e
00000240: b91a 98be aff1 d63e a66e 41bf d9a9 193f
00000250: 6078 0f3f bb3c 21bf 78c5 223f 43ba f5be
00000260: b27d 7abf c678 fcbe 7d19 77bb ce81 14bf
00000270: 3910 2abf a3d3 09bd 08cc 8b3f 4c6b 423f
00000280: ac3c 4dbf 8d0e b83e af03 003f 4337 73bf
00000290: 72af 40be 0264 7e3f 9723 20bf 9564 aabe
000002a0: a2fd b3be ea11 21bf ce43 d9be 7c8b 0dbf
000002b0: 32a1 573f 19c7 aabe e64b 46bf a967 f1bd
000002c0: 4372 3bbf 4e6b 3ebe 1765 2c3f 3809 e93e
000002d0: bc8b 30bf 06b4 d1bd 1e34 bd3e be34 513e
000002e0: 7050 39bf 72d4 a9be 42a9 68be 7daf a73e
000002f0: f43f 843f 64b5 bf3e 4478 493e f656 5cbf
0.24284074 -0.051940016 -0.023100175 -0.051208276 0.39551803 0.31250003 0.10567879 -0.70370173
0.35320422 -0.91062015 0.25402257 0.45097688 -0.3214858 0.7429087 0.23434438 0.60603
0.25433403 -0.56722426 -0.49262303 0.93622875 -0.9448949 -0.21230511 0.18690085 0.8250661
-0.025191119 0.22203763 0.34563634 -0.42039517 -0.43612254 -0.19351894 -0.64164746 -0.4508719
0.3448371 0.68604344 -0.042848084 -0.37178487 0.43718106 -0.46439335 -0.3072939 -0.35441574
-0.26654416 -0.93088984 0.06108477 0.2945029 -0.2757991 0.60655653 0.16034245 0.19056918
0.0771986 0.11542186 0.67575413 0.64889956 0.33750224 0.37574485 -0.28956157 0.068308085
-0.1280873 0.39103797 0.16309655 0.98338085 1.032267 -1.0871168 0.2730937 0.9950281
0.58895916 -0.28098783 0.3591358 -0.7518204 -0.087644204 1.0549403 -1.0071667 0.9285431
-1.1250608 0.59964937 -0.057134345 0.33865798 -0.10054727 -1.0452226 0.18675353 -0.7264231
0.72306824 0.44379035 -0.79221034 0.090819016 1.2195951 -0.9809382 0.007856631 0.22344673
-0.45387337 -0.17895386 0.19835944 -0.53789717 0.26191235 0.050350677 0.49392775 0.2313049
-0.6896835 -0.4245108 -0.87794983 -0.54197145 -0.17998078 -0.09658194 -0.7634891 0.3377687
0.83059955 0.31979212 0.42198592 0.41884354 -0.83702314 0.319885 0.79348993 -0.5816134
-0.26090905 -0.08211939 -1.0489798 0.08705583 0.031115249 1.0639311 -0.14956643 0.64047587
0.43650034 0.18879676 -0.82707006 0.7732362 0.4543462 -0.85944676 -0.84536284 0.6087521
-0.8867307 -0.7897045 -0.42599884 0.46871847 -0.41469625 -0.67497987 0.3223583 0.4085375
0.1465144 -0.8976281 0.8343158 -0.25548995 -0.87836343 -0.14989093 0.46715787 0.4278397
-0.29707888 0.41981265 -0.7555946 0.6002479 0.5604305 -0.6298329 0.63582563 -0.4799367
-0.97848046 -0.49310893 -0.0037704401 -0.58010566 -0.66431004 -0.033649098 1.092164 0.7594497
-0.801707 0.359486 0.5000562 -0.950062 -0.18816927 0.9937135 -0.62554306 -0.33279863
-0.35154444 -0.6291796 -0.42434543 -0.5529096 0.8423034 -0.33355024 -0.7745956 -0.1178735
-0.73221225 -0.18595621 0.6734175 0.45514846 -0.6896322 -0.10239415 0.36953825 0.20430276
-0.7238836 -0.33169895 -0.22720817 0.32751074 1.0332017 0.37443078 0.19674784 -0.8607019

bias f4 [64]
00000000: 1ae0 bc3e edfc 313e 2cd1 34be 8db6 73be
00000010: fb06 3b3e 5250 95be 8fb5 7c3e 6f6e c63e
00000020: e7f1 bdbe ed67 acbe b957 85be bd3c fcbe
00000030: e385 97bd e2d2 b63e 483d 5a3e ed5c 33be
00000040: fe88 9bbd 54d8 7abe aabe dcbe 87f3 27be
00000050: d270 353d 3a6c 9dbe 0baa c9be 3b9a 123e
00000060: f60c bb3d 5fa6 1abe a308 043e b03b 013f
00000070: 0be1 153c d99c d1be 04f0 033f 6a1c d13e
00000080: 0468 f4bc 7ec8 72be d1b7 44be f79a f23e
00000090: 22d0 913e e370 97be 8a28 943c fcc1 b23d
000000a0: 7dec 2d3e 1901 20bd 57cd 78be 70db debc
000000b0: af54 12be 35dc 1cbe c25c 84be d4d9 92be
000000c0: 3297 73be cd22 683e e713 dcbe b497 fbbe
000000d0: f90d ed3e cf25 453e ebbb 733e 9ef2 453e
000000e0: e17e 57be ede2 8bbe 419a b8be 0db8 24bd
000000f0: 29e5 003e 394a 05bf 2ac0 d5be 78d4 923e
0.36889726 0.1738164 -0.17657918 -0.23800106 0.18264382 -0.29162842 0.24678634 0.3875613
-0.3709862 -0.3367304 -0.2604349 -0.4926509 -0.07398584 0.35707766 0.2131244 -0.17515917
-0.075944886 -0.24496585 -0.43114215 -0.16401492 0.044297047 -0.30746633 -0.39387545 0.14316647
0.091333315 -0.15102528 0.1289392 0.504817 0.009147893 -0.40939978 0.5153811 0.4084199
-0.029834755 -0.23709294 -0.19210745 0.47383854 0.28479105 -0.29578313 0.018085737 0.08728406
0.16984744 -0.039063547 -0.24297081 -0.027204245 -0.14290117 -0.15318377 -0.2585202 -0.28681815
-0.23788145 0.22669525 -0.42983934 -0.49139178 0.46299723 0.19252704 0.23802154 0.19330832
-0.21044494 -0.27321568 -0.36055186 -0.040214587 0.12587418 -0.5206638 -0.41748172 0.28677726

weight f4 [64, 64]
00000000: 7e75 7d3a 6392 b13d dc4a e83d 6235 9d3d
00000010: 091e d6bc e424 08bd d2f0 2a3c 5d8a be3d
00000020: cff7 c7bd acc5 893c 7d75 cfbd 1106 a7bd
00000030: 1a00 8f3d ee8c 153d d9ad 273d 014e a33d
00000040: 593c 463c 5451 233d 86dc c4bd 3af1 e4bc
00000050: 51b0 0b3d 8a9d 21bc a871 a23a 0485 773d
00000060: d186 bcbc 3e0f 1dbd cfe5 2abd b052 eebd
00000070: 9290 133e 9501 8dbd 7d42 993c 0bf1 dfbc
00000080: 4d02 cbbc 5b65 abbd 7236 97bd b2ee c03c
00000090: ec9e d33c c5d1 70bd 8b5c 71bd b300 37bd
000000a0: 2e4c 2e3d 104f 2b3e 9783 e5bc fda5 84bd
000000b0: ee27 3fbd 5522 b4bd f7c0 6d3d 82f9 0abc
000000c0: 57a4 34bc 298d 073e 3f89 073e bea6 babd
000000d0: 44f4 17bd 9dfe 843d dbbf 7f3d ae69 c7bd
000000e0: 45f8 04be 2be7 823d a65f d9bd 72c1 cd3d
000000f0: 1f4e 07be fc62 58bd 6b56 903d a261 3a3d
00000100: 17f9 7cbd cbb5 05bd 13ca 5f3d 8b7a b13d
00000110: 5a38 a23d 54c2 16be b92a 82bd 8e2e 89bc
00000120: 2772 db3c eb9e c93d 97a7 5ebd 5503 6ebc
00000130: cb49 83bd 18b7 1d3d 862c 10be 0c54 cb3b
00000140: 4cad 663e 2831 97bd da90 c13d d336 783d
00000150: a4fc 843d a9c4 29be 6a52 953c 4cce aa3d
00000160: c2d6 223e e39b 43be e209 34bd 9809 c5bc
00000170: 882e fbbd 66cb 8d3d 2ac5 99bd 094e b83c
00000180: f590 7ebe c52e 1a3c 2de9 443e fc36 ad3d
00000190: 458a 363e 2c2a 71bd 9e5c 123e 724b 22bd
000001a0: b560 583c ab41 98be ba7d a0bd 8497 6f3d
000001b0: aaab 103d 2a2b 3dbd c472 edbd 9a15 a23b
000001c0: 7e1c 02be 8f6b 9abd f447 b3bd 2c8a b5bd
000001d0: 852d 053e b86e cb3a 1876 c9bd 3cf1 743b
000001e0: c71a 10be 0f53 88bd 550e 1abd 43af 403e
000001f0: 28f0 173e 5599 aebd ac70 21bd bffa 7bbc
00000200: 1a0f 99bc c36b 4ebc 93c7 383d 2835 6abd
00000210: 0344 37bd 7b96 9dbd 5ce3 08bd 023e bb3d
00000220: 99c4 eebd 92d9 8e3d 8582 363e 273f 05be
00000230: b317 2a3d 061c 1a3e ff7b 743c 28d0 bb3c
00000240: 5202 71bd 8637 c73a 2ef6 c43c 5a84 993d
00000250: 8d1e 8dbd f116 8cbc 2012 58bd 0e8a b0bd
00000260: 09c9 2c3e 36e3 fdbb 07d0 0dbc d873 e1bd
00000270: f963 7c3b 8166 c33c cf35 86bb 5ecb bebd
00000280: f72b 213e 0723 fb3d 360f a0bd 90d6 a1bd
00000290: a336 253e 66ed 9cbd 8e6e 693e 1caf dcbd
000002a0: 7e9e 46bb 4b1a 83be 2261 503d 3a3b 3d3e
000002b0: 954c 153d 6ac5 4a3d 0db8 39be 6178 d43d
000002c0: 0318 813d f04e 8abd 18f4 3ebd bfaa d83d
000002d0: ec90 b83d a0f4 d5bd d709 8dbd 0906 0cbe
000002e0: 183a cabb 7f25 31bd 4813 ab3d c0ad 473b
000002f0: cb3b 20bd a01c cc3d bfa6 1c3d ae6b ec3c
00000300: e4dd 84bd de8b c9bd 2c63 a83d e2a5 83bc
00000310: 68e2 eabd 470d 6ebd 72ff 18be c8ca 2c3d
00000320: 9672 13bd d58d 11bc afd8 94bd 8209 e73d
00000330: fd69 0d3e a46d cf39 5baf c7bd 5118 9a3c
00000340: a6bd 243e aebf b5bb d72a b1bc 59f2 ba3d
00000350: 6e5d f43e b629 813d 5053 92bd f331 ee3e
00000360: 9571 3dbe 484b 3ebe 9218 523e f0cb 673d
00000370: 3fb8 e23e 11d2 96bb 404e 303e 2927 ab3c
00000380: fc3c bebe ea13 a53d 6ba9 d9bc 9cc0 e83d
00000390: 2bfe 2dbe 3228 173d 2b06 8cbe c26b dc3e
000003a0: fe98 2dbd 986e 90bc 5d96 89be 84f0 b63d
000003b0: 62df 42bd dd12 26be 8a0f 3ebd a5f4 0ebe
000003c0: 5979 50be 2b55 1bbe c031 c5bd 001b babd
000003d0: 1937 5b3d e9b5 b13e 64a3 2a3e 9471 b93d
000003e0: ea2d b9bd b35e 21bd 5968 30be 7081 64be
000003f0: 07b2 a1bd 4170 e93d b4cc d93d 2a7e fdbd
0.0009668692 0.08670499 0.11342403 0.076761976 -0.026137369 -0.033238307 0.010433393 0.093037345
-0.097640626 0.01681789 -0.10129831 -0.08155454 0.06982441 0.036511354 0.04093728 0.079738624
0.012099349 0.039872482 -0.09612374 -0.027947057 0.034103695 -0.00986422 0.0012393491 0.060429588
-0.023013504 -0.038344614 -0.04172307 -0.11636865 0.14410618 -0.068850674 0.018708462 -0.027336618
-0.02478137 -0.083689414 -0.073834315 0.023551319 0.025832616 -0.0587938 -0.058926146 -0.0446784
0.04255312 0.16729379 -0.028016848 -0.06476972 -0.04666894 -0.08795611 0.058045354 -0.008482339
-0.01102551 0.13237442 0.13235949 -0.09113835 -0.037098184 0.06493876 0.062438827 -0.09736954
-0.12985332 0.06391748 -0.106139466 0.100466624 -0.13213395 -0.052828774 0.07047733 0.045503266
-0.061760988 -0.032644074 0.054636072 0.08665951 0.079209045 -0.14722568 -0.06355805 -0.016745832
0.02678783 0.09844764 -0.054359045 -0.014527162 -0.06410559 0.03850469 -0.14079484 0.0062050875
0.22527045 -0.07382423 0.09451456 0.06059916 0.064935 -0.16578926 0.018227775 0.08340129
0.15902236 -0.19102435 -0.043954737 -0.024052426 -0.122647345 0.06923561 -0.07508309 0.022498148
-0.24859984 0.009410565 0.19229575 0.08457753 0.17826183 -0.05887811 0.14293143 -0.03962273
0.0132066505 -0.297376 -0.078364804 0.058494106 0.03531996 -0.046183743 -0.115941554 0.0049464228
-0.12706181 -0.075400464 -0.08753958 -0.08864245 0.13005646 0.0015520668 -0.09836978 0.0037375232
-0.14072715 -0.06656467 -0.037611324 0.18816857 0.14837706 -0.085253395 -0.039414093 -0.015379607
-0.018683959 -0.012598935 0.045112204 -0.0571796 -0.044742595 -0.076947175 -0.03341995 0.091426864
-0.11658592 0.06975092 0.17823227 -0.13012372 0.041526508 0.15049753 0.014922141 0.022926405
-0.058840103 0.0015199042 0.024043169 0.07495947 -0.06890593 -0.017100783 -0.05275166 -0.08620082
0.16873564 -0.007748033 -0.008655555 -0.110084236 0.0038511737 0.023852589 -0.00409577 -0.09316133
0.15739428 0.1226254 -0.07815401 -0.07902253 0.16134124 -0.07662468 0.2279608 -0.10775587
-0.003030687 -0.25605997 0.050873883 0.18479624 0.036449987 0.049504675 -0.18136616 0.10374523
0.06303408 -0.067533374 -0.046619505 0.10579442 0.09012017 -0.10447049 -0.068866424 -0.13674177
-0.006171476 -0.04324865 0.08353287 0.0030468553 -0.039119523 0.09966397 0.03824496 0.02885994
-0.06487635 -0.09841131 0.082220405 -0.01607031 -0.11468965 -0.05811813 -0.14941195 0.042185575
-0.03599795 -0.008883913 -0.072678916 0.1128111 0.13809963 0.00039563805 -0.09750243 0.018810423
0.1608797 -0.0055465316 -0.021626873 0.091282554 0.4772753 0.06306784 -0.07144797 0.46522483
-0.1850036 -0.18583405 0.20517185 0.056590974 0.44281194 -0.0046026786 0.1721735 0.020892696
-0.37155902 0.08060439 -0.026570043 0.11364862 -0.16991489 0.036903568 -0.27348456 0.43050963
-0.042382233 -0.01763086 -0.2687253 0.089325935 -0.047576316 -0.16218133 -0.046401538 -0.13960512
-0.2035879 -0.15169208 -0.0962863 -0.09087181 0.053519342 0.347091 0.16663891 0.090548664
-0.090419605 -0.039396953 -0.17227305 -0.22315001 -0.07895284 0.11398364 0.10634747 -0.123775795

bias f4 [64]
00000000: 1fa2 cdbd 6219 4dbc 49ab fe3c 139a e73c
00000010: c53b 67bd 038a 27bd 9380 fc3c 6ab9 08be
00000020: 1fa1 3f3c d7c9 2e3c 5429 b1bd ee0d 9c3d
00000030: 2479 ebbd a769 76bd 5630 0abe a3f0 d53d
00000040: de6b 0d3d c811 073d d7e4 6bbd 784e 783d
00000050: df85 91bd c7b2 e0bd dd42 82bd 6241 73ba
00000060: 0de3 e1bd 97f3 ca3d 9fad d63c 194d f23d
00000070: 318d a0bc 38ca 463d 525a 2c3d 16fb 8e3d
00000080: fb21 b23d bfb6 c6bd 3887 cd3d 17a2 5bbd
00000090: 7b2c 7fbd 1cd3 41bd b18d e53c 1626 703d
000000a0: 5fe9 febc 8cf5 24bc d6e0 22bd 36cf 173d
000000b0: cb4c e53c 1b24 bcbd 23f9 c9bd 1b7d 9f3d
000000c0: 9046 26bc 7077 f23d 0659 bf3c 1008 1e3e
000000d0: 13e8 a83d 5c18 09be 1563 c23d d6cc 23be
000000e0: 0dd2 c3bd 1396 be3d 2df5 ac3d 32bc de3c
000000f0: 8427 c43d cdf0 f23d a90f c03d cdf9 4ebc
-0.10040688 -0.012518259 0.031087535 0.02827171 -0.056453485 -0.040903103 0.030823028 -0.1335198
0.011696129 0.01066824 -0.08650461 0.076198444 -0.11497715 -0.06015935 -0.13495001 0.104462884
0.0345267 0.032975942 -0.057591286 0.06062171 -0.07105612 -0.10971599 -0.063604094 -0.0009279457
-0.110296346 0.09909742 0.026205836 0.118311115 -0.019598575 0.048532695 0.042078324 0.069814846
0.086978875 -0.09702825 0.100355566 -0.053621378 -0.06229828 -0.04732047 0.028021665 0.05863007
-0.03111714 -0.010068309 -0.0397652 0.037062846 0.02799072 -0.09186574 -0.09861972 0.07787534
-0.010148659 0.11839187 0.02335788 0.15432763 0.0824739 -0.13388199 0.09491555 -0.15996107
-0.095615484 0.09305968 0.08445201 0.027189348 0.095778495 0.11862335 0.09377987 -0.012632799

weight f4 [3, 64]
00000000: b172 d13d 6a27 173e 2ed1 083e b258 003d
00000010: 8ea9 1c3d 49e8 a53b 51e2 883d 715c 8e3c
00000020: 80c1 f43d fc65 543d 8c7b 523e d8f0 703b
00000030: 7316 50bd e922 a9bd 11e6 1f3d 87ab 86be
00000040: cd48 b23c d761 d23b 8736 cb3e 6344 f5bc
00000050: efcd d03d 7071 e9bd 3400 c93d 4106 db3d
00000060: ad9b b4bd f8b9 803d 9372 a23d 61a7 0bbd
00000070: 1d74 81be 0748 83bd ce63 b33d 383f 403d
00000080: 730b a0bd 6bb3 1cbe 43a5 963d 3327 02be
00000090: 373b bb3c de43 f6bd 4c35 12bc 9502 2e3d
000000a0: dd1a 8cbd f847 523d 2cac 723d b11f d43d
000000b0: ab8d e63c fcb1 f33d 7468 4cbc f8af b8bd
000000c0: 49f5 9a3c f3b5 c33d 664b 75bd 1554 863d
000000d0: 7de5 8b3d 4e04 dd3d 5b1a 423d 8948 b7bd
000000e0: 77b5 db3c af42 47be f287 b73d 7261 c1ba
000000f0: 0bc0 6d3d 61d2 00be 41de ed3d e2b6 4bbc
00000100: a53e 03be 50b4 5aba d109 f53d c94c e13d
00000110: 9534 67be b8a0 923a a043 023e 5d3c 10be
00000120: ecc5 973d 34f4 833c 4cba 32bd 7215 1bbe
00000130: 3322 1bbe 087e bb3d fced fcbd 636b dbbd
00000140: a240 ec3d a31c 62bd f08a 78be b0b1 30be
00000150: 67f8 603c 4f32 e43d e7d7 c3bd 153a 15be
00000160: f794 24bd b661 bbbd b3a4 f9bd 1ab0 3fbe
00000170: 887e 35bd 971f cbbd a0fb 253e 2f66 ad3c
00000180: 9b18 533e cb69 49be 3d8f 01be f10f c83c
00000190: 1aba 1fbd 5a66 15be c537 bcbd fabc 653d
000001a0: 4a1a 1bbd 4681 ab3b 9154 f8bd 4406 983e
000001b0: bea6 163e caf0 d23d 99f7 fc3d 5f00 a13d
000001c0: 2dbe 7f3d 7693 2ebb 71db b2bd 01ab 363d
000001d0: 026a 283e 16a4 0fbd edaf 053d ac6b f6bd
000001e0: 129f da3d edc2 45be b953 83bd e79f d63d
000001f0: 21ec d33d c9e2 cdbd ca40 bcbd 2699 31be
00000200: 4507 24bd c12c 82bd 255d b83b 6935 88bd
00000210: 9ff7 1fbe 9c8e b0ba 3c63 a5bc 8bd5 f53d
00000220: 6e49 c9bd 9d0b cfbc 1275 94be 3897 9d3d
00000230: 84ee 37bd c223 6dbd 2d40 0abe a3f0 58be
00000240: f8f0 e0bd f5ae 49ba a70d 773e 66ec debd
00000250: 1f0e 113d ad3a 0fbe 9303 573b a6d4 23be
00000260: 7ac8 3c3d d470 84bd f66c a43b 737c 71bd
00000270: 948f 3f3e c7a0 69bd be54 f1bd 2c7b 37bc
00000280: 7798 91bd 2023 f2bd 7064 e9bc 3e2a 0c3e
00000290: e6b1 98bd 09ce 2cbe c8d3 42bd 3f2d 80bc
000002a0: 3d93 1b3d d36d 90bd 435b df3d 65fd cfbb
000002b0: 5de0 c13d f3da da3d b5ce 253e 1b85 523d
000002c0: 499c 21bd 88ae 473d f803 ebbc d671 423e
000002d0: 2213 523d 7c1f 633d d2ee b938 831b 95be
000002e0: 04dd 1dbb d426 11be dba9 c53c 53c1 a23d
000002f0: 951f 30bd 965d 99bc 01d9 fa3d 0701 4f3d
0.10226954 0.14761129 0.13361046 0.031334586 0.038247637 0.005063091 0.066837914 0.017378064
0.1195097 0.051855072 0.20554942 0.0036764648 -0.05080266 -0.08258612 0.039037768 -0.2630274
0.02176323 0.006420355 0.3969004 -0.029939836 0.10195529 -0.113985896 0.09814492 0.10694552
-0.08818755 0.06285471 0.079320095 -0.03409517 -0.252839 -0.064102225 0.087592706 0.04693529
-0.07814684 -0.15302818 0.0735574 -0.12710266 0.022855384 -0.120246634 -0.00892384 0.04248293
-0.06841061 0.051338166 0.059246227 0.10357607 0.028143724 0.11899182 -0.012476075 -0.090179384
0.01891579 0.095561884 -0.05988636 0.06559006 0.06830881 0.10791837 0.047388416 -0.08949382
0.026819928 -0.19459032 0.089614764 -0.0014753772 0.058044475 -0.12580253 0.11614657 -0.012433739
-0.12816866 -0.00083429087 0.11964763 0.11000974 -0.22578652 0.0011186814 0.1272111 -0.14085527
0.074107975 0.016107656 -0.043634698 -0.151449 -0.15149765 0.09154898 -0.123500794 -0.10713842
0.11535765 -0.05520309 -0.2427175 -0.17255282 0.013731099 0.11142408 -0.095626645 -0.14572938
-0.040181126 -0.09149496 -0.12189617 -0.18719521 -0.044310123 -0.09918135 0.16209269 0.021166889
0.20614855 -0.19669263 -0.12652297 0.024421664 -0.03899584 -0.14589825 -0.09190325 0.056088425
-0.037866868 0.0052339165 -0.12125505 0.2969228 0.14712045 0.10299833 0.12351913 0.07861399
0.062437225 -0.0026638187 -0.087332614 0.044596676 0.16446689 -0.035068594 0.03263848 -0.120322555
0.106748715 -0.1931264 -0.06412453 0.10479718 0.103477724 -0.100530215 -0.09192045 -0.17343578
-0.040045995 -0.063561924 0.005626338 -0.06650812 -0.15621804 -0.0013470235 -0.02018892 0.12003621
-0.09828459 -0.025274092 -0.28995568 0.07694858 -0.0449052 -0.05789543 -0.13501044 -0.21185546
-0.10983461 -0.0007693612 0.24126302 -0.10884933 0.035413858 -0.13987227 0.0032808527 -0.15999088
0.046089627 -0.06466833 0.005017872 -0.058956575 0.18707114 -0.057038095 -0.117837414 -0.0111988
-0.071091585 -0.11823106 -0.028490275 0.13687989 -0.074558064 -0.16875471 -0.04756525 -0.015646575
0.037982214 -0.07052197 0.10906079 -0.0063473457 0.09466622 0.106862925 0.16192134 0.05139647
-0.039455686 0.04875043 -0.028688416 0.18988737 0.051287778 0.055449948 8.865971e-05 -0.29122552
-0.0024088034 -0.14174968 0.024128845 0.0794703 -0.04299887 -0.018721383 0.122484215 0.05053809

bias f4 [3]
00000000: a0f1 0cbe cffc 16bb 8b17 713c
-0.13764048 -0.002303887 0.014715086

weight f4 [64, 3]
00000000: eb57 c43f bc17 1e3f a002 de3f a924 7f3f
00000010: be63 cd3f dd18 0340 1e8d 2cc0 1374 11c0
00000020: 4a4c 3bc0 8797 343f 2964 96bf a7c7 89be
00000030: 90de 0c3f 0a19 fc3e 5ee9 533f 1c76 b63f
00000040: d6ba f9be 6b2d 5ebe b0d5 583f c497 393e
00000050: 717e b43f e820 693f 8b8e 9d3f 89e5 3c40
00000060: 045e 923e 1e98 593f 5f3f 0840 f023 633f
00000070: 6d6d 20bf d385 bf3e 58f5 7ebf 9706 88bf
00000080: 482b 9ebf e2fb 143e 2a2d 0b3f 82c1 7c3f
00000090: cd01 df3f b074 a93f 829e 0540 822c 55bf
000000a0: 6e94 c33e e790 9abd 2930 93bf 0902 7c3f
000000b0: 8c9f cbbf ab0d df3f 0f2a 7f3e 9ec5 cabf
000000c0: 6493 b1be 9423 c3bc 8f94 bc3f f47e acbe
000000d0: 93d9 95be a18a e3bf 0218 ac3e f2d9 c8be
000000e0: 10bd e93b 7500 09c0 389d ec3e 15a4 b6bd
000000f0: 67c4 a03f a14b 9f3d cf1c 543f 6056 1ebf
00000100: 88a1 23bf 383e 3c3f fc53 9cbe d965 fb3e
00000110: eb39 c0bc f71d 7f3e 51cc 913f aa31 ad3f
00000120: b3c8 02c0 567f 733f c3d9 73be 1794 643f
00000130: 238b 16bf 7358 07c0 23d5 e13e 26ec 2dbe
00000140: b4cd 9a3e d567 2d40 7685 a33d a829 203f
00000150: 7eb2 a03e d1af b73f baad fb3f 5067 533f
00000160: a6a3 c8be 3cad e43e 2956 1fbf 9662 b13e
00000170: 94bf 9a3e 5f63 493f e3ca d0be 1110 9fbe
00000180: f5a5 d7be c464 033f a1a6 943e 6754 933e
00000190: baa9 1f3e 5628 d7be cc00 03c0 e367 abbd
000001a0: 86ed 78bf 6659 153f e5ca f03e aeba a8be
000001b0: 79de 2f3e 4c5a a23f 081e ae3f 9218 6c3f
000001c0: 724b 52be 83d6 4ebd 4f3c 1e3e 261f 5cbe
000001d0: 698d 67bf 9cda 4bbe 210e 14bf 355f 663f
000001e0: c329 f6bf 4cbe febf 2f41 2dc0 764d 683f
000001f0: c4a4 d6bd d5b2 2c3e 06a7 443e 1bea 32bf
00000200: f236 97bf c019 ccbf 1d9a 883c 458c ecbf
00000210: 86da d63f 0333 d33f 9114 1140 01a9 dfbf
00000220: 3582 ae3e 14f4 e03f cc7c c1be 7657 863f
00000230: d2d1 e03f d139 3fc0 1086 303e 6e22 89bf
00000240: 0f06 4e3e d158 03be 9083 8fbd ebf0 acbf
00000250: fc3d f83e a622 d0bf 641e b63f e831 8abe
00000260: bc24 0340 8c17 933f 57d6 b73f 0bef 973f
00000270: b918 833f 3a2e d9bb 8617 263e 4471 253e
00000280: 307c 243f b7f6 22bf 18d5 05bd 41a2 763f
00000290: a48b ce3d 4409 36bf 4c0a 92be 23f6 e0be
000002a0: 4e23 403f eed1 dc3f 7817 9b3f 1f49 94bf
000002b0: fa68 a4bf e999 93bf 4bf5 5a3f 6a44 e0be
000002c0: 23b8 b83d 1db5 07be fa9a 07bf 665c 043e
000002d0: f843 93bf 0f3a 3f3f 30f3 8b3f 37ed 82c0
000002e0: 3ea8 45be 4dd3 21bf d597 e1bf f0f5 9b3e
000002f0: e9bf b6bf d6e4 103f 1b6f 3ebf 89a9 e8bf
1.533933 0.61754966 1.7344551 0.99665314 1.6046064 2.0483925 -2.696113 -2.2727096
-2.9265313 0.7054371 -1.1749316 -0.26910135 0.55027103 0.49237853 0.82777965 1.4254794
-0.48775357 -0.21697013 0.8470106 0.181243 1.4101087 0.91065836 1.2309126 2.9515097
0.28587353 0.8499774 2.1288679 0.8872671 -0.6266697 0.37406787 -0.99593115 -1.0627011
-1.2356958 0.1454921 0.5436579 0.9873277 1.7422425 1.3238735 2.0877995 -0.8327104
0.3819918 -0.07547169 -1.1499072 0.98440605 -1.5908065 1.7426046 0.24918388 -1.5841558
-0.34682763 -0.023820676 1.4732836 -0.33690608 -0.29267558 -1.7776681 0.33612067 -0.3922878
0.0071331337 -2.140653 0.46213698 -0.08918015 1.2559937 0.07778097 0.8285646 -0.6185055
-0.6391835 0.7353244 -0.30532825 0.4910114 -0.023465117 0.24913774 1.1390477 1.3530781
-2.0434997 0.95116174 -0.23813538 0.8928847 -0.58806056 -2.1147735 0.44107923 -0.16984615
0.30235064 2.7094624 0.0798444 0.6256356 0.3138618 1.435053 1.9662392 0.8257952
-0.39187354 0.44663417 -0.62240845 0.34645528 0.30224288 0.78667253 -0.4077979 -0.31066945
-0.42118803 0.5132563 0.29033378 0.2877533 0.1559209 -0.4202296 -2.0469236 -0.08369424
-0.9723743 0.58339536 0.47029796 -0.32954925 0.1717471 1.2683806 1.3602915 0.9222499
-0.20536593 -0.050497543 0.15452693 -0.21496257 -0.9045015 -0.19907612 -0.5783406 0.89989024
-1.9231495 -1.9901824 -2.7071035 0.90743196 -0.10480645 0.16865094 0.1920434 -0.69888467
-1.1813643 -1.5945358 0.01667505 -1.8480307 1.6785438 1.6499943 2.2668803 -1.7473451
0.34083715 1.7574487 -0.37790525 1.0495441 1.7564032 -2.9879038 0.17238641 -1.0713632
0.20119499 -0.1282685 -0.070075154 -1.3511022 0.4848479 -1.6260574 1.4228024 -0.269912
2.049117 1.1491561 1.4362286 1.1869825 1.024192 -0.006627825 0.16219911 0.16156489
0.64251995 -0.63657707 -0.032673925 0.9634133 0.10085228 -0.7110789 -0.2852348 -0.43937787
0.7505387 1.7251565 1.2116537 -1.1584815 -1.2844536 -1.1531345 0.8553054 -0.43802196
0.09019496 -0.13252683 -0.5297085 0.12925872 -1.1505117 0.74697965 1.093359 -4.091457
-0.1930246 -0.63213044 -1.762446 0.30461073 -1.4277316 0.56599176 -0.74388283 -1.8176738

bias f4 [64]
00000000: cf04 793d 8583 3f3d 8194 59be ed23 6a3c
00000010: cb1d 103f 7600 19be e6fa 073f 2792 853d
00000020: ea85 de3e e944 bbbe b405 073e b972 a6be
00000030: 7834 4f3e e0c5 213f 745b adbd fcd4 8c3d
00000040: 3e1a d13e 8098 793e 8bf9 203f daa2 78be
00000050: 9aeb 98be 0f56 ec3e 4a87 9abe 4a74 a8bd
00000060: 9258 0abe b947 babe 96d2 e9be 0b7d fc3d
00000070: cef7 af3d f5ac cfbe 34fb e53e 07ce 0bbf
00000080: 1bc7 893e e3eb d5be 8204 d2be 9979 bfbe
00000090: b85a 053e 25b5 22bf 2b9a 07bf 7c4a 9d3e
000000a0: 89e4 45be f0e5 17bf 3976 c33e bec9 cbbe
000000b0: 7e2b 923d 9090 0a3f c111 b0bd 6486 58be
000000c0: e042 283f 2fb9 adbe 12f2 cf3e 3b14 393e
000000d0: 26c9 d3be 6d27 47bf d1bf 89be 22ac 013f
000000e0: f409 8c3e 6b5f 7abe 1825 073f 2c28 033f
000000f0: 8512 143f 4d43 d7bd b26e 1abf 7bb3 3dbe
0.0607956 0.046756286 -0.21248056 0.014290792 0.5629546 -0.14941582 0.53117216 0.06522017
0.43461543 -0.36576012 0.1318577 -0.325094 0.20234859 0.6319256 -0.08464709 0.06876561
0.40840334 0.2437458 0.6288077 -0.24280873 -0.2986725 0.46159407 -0.30181342 -0.082253054
-0.1351035 -0.36382845 -0.45668477 0.123285376 0.08592187 -0.40561643 0.44918215 -0.5461125
0.26909718 -0.4178153 -0.41019064 -0.3739746 0.13022888 -0.63557655 -0.52969617 0.3072089
-0.1932546 -0.5933523 0.38176134 -0.39802355 0.07137202 0.54126835 -0.08597136 -0.21145016
0.65727043 -0.33930346 0.40614372 0.18074124 -0.41364402 -0.77794534 -0.26904157 0.5065328
0.27351344 -0.24450462 0.52790976 0.5123317 0.5784076 -0.105108835 -0.6032516 -0.18525498

weight f4 [64, 64]
00000000: 818e 81bd 01ee 6f3d 074e 52be 0cef 003e
00000010: 8930 993e 2709 94bd 46f3 5f3e 452a 7c3c
00000020: 81e9 87bd 9040 06bd f02f 583c 9184 81bc
00000030: d651 853d 9758 c53d 277c 80be 6d72 123e
00000040: 0290 893e 9a9d 773d 4fd8 3f3e 2333 04be
00000050: 944a 3fbe 173f 583e 53a9 73be 1844 ff3c
00000060: 3154 01be 6533 f03b 0d22 6fbe 22f9 c73e
00000070: 0b4e 1fbd 7301 87be dcd6 0b3e 8e24 43be
00000080: 7c9a c63e 4ada bebd cfdc 60be e36a 413c
00000090: aac0 1b3d b2cb 8dbe 872c 61be 1c68 1dbb
000000a0: dccd eebd c0b2 79be 9c0b 533e ea15 59be
000000b0: d09f 6f3d 77ea 663c a2ac d2bd a660 98be
000000c0: c261 dabb 37f1 8cbc 48ec 5a3e bc0a c33d
000000d0: 06f3 c0bc 7ac7 5fbe f7d0 45be 48ef 333e
000000e0: c983 873e 764f b93c 5c9c 3d3e 55a9 233e
000000f0: b200 a33d bce4 4dbf 9257 37be 9a9b 473d
00000100: 892e 623e a419 3d3d b5e5 bebe bce7 30be
00000110: f389 8d3e 34b4 02bf a29c 3b3d 823f 053f
00000120: 0f4a 213f 62df 6fbe 5c7f 33be 71fe c2bc
00000130: e7ab b33e 6609 253d 1b73 aa3a 6104 bcbe
00000140: bad1 153f 55e1 6bbd 1280 9d3d 1a63 463e
00000150: f1a8 0cbe 2f4b 3b3e d8d8 36bd 2bf2 193e
00000160: caec 983e efa9 19bf 4af7 d6bd 7180 29bf
00000170: 4ba4 bb3e 04e2 49bd b8dd 4b3e 05e1 a5bd
00000180: 398b 833e 354d d6bd 8b0e 3abe 571b abbd
00000190: 8e9b b43e bd6d 96be 9c8e 93bd db13 9f3c
000001a0: accd 853d 77cb 10be be22 9ebd 3bf8 22bf
000001b0: 36d9 903e 2871 a03f 9357 533e 535d 0b3e
000001c0: 0fff 1c3d a9d2 b93d 24de b73c 4371 8b3e
000001d0: 556d 06be 5ebd b0bd 2c10 a0bc 3fa3 a93c
000001e0: 8cb9 143e 6316 94be 2864 353d 474e ba3d
000001f0: 14a1 3e3f d0d1 103f 17f6 0e3d 3355 2fbf
00000200: f09a 7fbe 7109 373e dbc3 38be e7ab a43d
00000210: e9a8 883d 9f99 f2be b47a 053e e4dd 1e3e
00000220: 606d a03e db71 b2be 2f55 303d 27aa d3bd
00000230: 847f f53d 882d 5c3e 8b0b 9dbd bbb0 5bbe
00000240: 9c55 cc3d 6326 fe3d 1a7c 223e 940d c3ba
00000250: 6002 5fbe a047 393e c091 1ebe b8ad f73d
00000260: 59c0 c0bd 2fbc e1be 9240 f8bc fd25 12bd
00000270: 94d7 e83e 640b 22be 27f5 683e 1fcc 29be
00000280: dfc9 133e cdaf d2bd 48f6 f8bd 5e7b 72be
00000290: ff2c aa3e a2a0 3cbe 8300 33be 8ab7 313e
000002a0: b704 68bd 06ce 24be 1acc 613d 4d48 0fbd
000002b0: 23fb e8bd 597f 303f d9b7 afbc bb4d a43d
000002c0: fe7f e63d 55cc 18be cddc 88bd 259a 9f3d
000002d0: de19 36bd b80b 33be f0a8 babc 71e3 8dbc
000002e0: bc62 a23c 0628 69bd 07e3 1a3e 6954 64bd
000002f0: 5ebe bf3e f68b 9c3e 9726 9dbc 0f0b f9be
00000300: 38fc 1bbf e478 cebe 7607 363f 3566 633e
00000310: 996f c53d 2af8 34be 9301 023e cb68 a5bf
00000320: f306 87be 18de 82be 0708 cb3e 195f 8cbe
00000330: 00ea cabe 4c00 973e 142a 2dbe 69e7 763e
00000340: 0450 c0bd 6461 af3e b8a5 d73d 35fd b7be
00000350: 333b cebe 67a1 023e 9f88 fabd 5d0a 84bc
00000360: 36a7 29be 6e4f 4a3e df06 81be 658f 503e
00000370: 4332 97be ceea f1be 1d7e f63d 7966 75be
00000380: 673e 803e 37e5 63be 74f7 71bd 7133 51be
00000390: b13e 223e 300e a4be b4b5 9abd 7ac1 d03d
000003a0: d308 023f 29de 8abe 86f1 b73e 9bdf e83d
000003b0: 3607 45bf 272c f33e 5ce5 4cbe fa55 87be
000003c0: 74e0 5d3e 20b9 b2be 4105 673e 2ea9 40be
000003d0: 9e1b d4be 7067 23be f842 93be 4e6c 973e
000003e0: 87c7 9d3d 1cbb 0b3e 5c08 7e3e 5772 0b3e
000003f0: 4041 c53e ab44 9fbc 6062 bbbd 62be a13d
-0.063260086 0.058576588 -0.20537578 0.12591189 0.29919842 -0.07228308 0.21870145 0.015390937
-0.06636334 -0.032776415 0.013195023 -0.015810283 0.065097496 0.09636038 -0.2509472 0.14301462
0.26867682 0.060453035 0.18734859 -0.12910132 -0.18680793 0.21117817 -0.23795061 0.0311604
-0.12629773 0.0073303455 -0.23352833 0.3905726 -0.038892787 -0.26368293 0.13656181 -0.19056913
0.38789737 -0.09318979 -0.21959232 0.011805269 0.038025536 -0.2769447 -0.21989642 -0.0024018353
-0.11660358 -0.24384594 0.20609897 -0.21199766 0.05850202 0.014093987 -0.10286833 -0.29761237
-0.0066644857 -0.017204864 0.21379197 0.09523532 -0.023553383 -0.21853438 -0.19317995 0.17571747
0.26467732 0.022620898 0.18516678 0.15982564 0.07959117 -0.80427146 -0.17904499 0.048732378
0.22088064 0.04616703 -0.37284628 -0.172759 0.2764431 -0.5105622 0.045803674 0.5205003
0.6300363 -0.23425058 -0.17529052 -0.023802968 0.3509209 0.040292166 0.0013004275 -0.3672209
0.5852314 -0.05758794 0.07690443 0.19373742 -0.13736321 0.18290399 -0.044640392 0.15033786
0.29868156 -0.60024923 -0.104963854 -0.6621161 0.36648783 -0.04928781 0.19908798 -0.0809956
0.25692156 -0.10463945 -0.1816961 -0.08354824 0.3527493 -0.293806 -0.07204935 0.019418648
0.065333694 -0.14140116 -0.0772147 -0.6366002 0.2829072 1.2534533 0.20638876 0.13609819
0.03832918 0.09073383 0.022444792 0.2723485 -0.13127644 -0.08629869 -0.019538961 0.020707725
0.14523906 -0.2892333 0.04428497 0.090969615 0.74464536 0.5657015 0.03490266 -0.6848938
-0.24961448 0.17874695 -0.18043463 0.080406 0.06672842 -0.4738283 0.13035089 0.15514332
0.31333447 -0.3485249 0.043049987 -0.10335188 0.11987212 0.21501744 -0.07668217 -0.21454136
0.09977266 0.124096654 0.15867653 -0.0014881366 -0.2177825 0.18093729 -0.15485287 0.12093681
-0.094116874 -0.44088885 -0.030304227 -0.03568076 0.45476973 -0.15824658 0.22749768 -0.16581772
0.14432476 -0.102874376 -0.121563494 -0.23679873 0.33237454 -0.18420652 -0.17480664 0.17355171
-0.05664512 -0.16094217 0.055126287 -0.03498106 -0.113760255 0.6894432 -0.02144997 0.080226384
0.11254881 -0.14921696 -0.066827394 0.077930726 -0.044458263 -0.17484939 -0.022785634 -0.017320367
0.01982247 -0.056922935 0.15125667 -0.055744562 0.37449926 0.30575532 -0.01918344 -0.4864125
-0.6093173 -0.40326607 0.71105134 0.22206958 0.09640426 -0.17672792 0.12695913 -1.2922605
-0.2637249 -0.2556007 0.39654562 -0.27416304 -0.39631653 0.29492414 -0.16910583 0.24111713
-0.09390262 0.3425399 0.10529655 -0.3593537 -0.4027954 0.12756883 -0.1223309 -0.016118223
-0.16567692 0.19756863 -0.25200555 0.203672 -0.29530534 -0.47249454 0.12035773 -0.23964871
0.2504761 -0.22255407 -0.05907388 -0.2042978 0.15844227 -0.32042074 -0.07554188 0.10193153
0.50794715 -0.2712262 0.35926455 0.11370774 -0.7696413 0.47494623 -0.20009369 -0.26432782
0.21667653 -0.34906864 0.22560598 -0.18814537 -0.4142732 -0.15957427 -0.2876203 0.29574817
0.077040724 0.13645595 0.24807876 0.13617836 0.38526344 -0.019441923 -0.09149623 0.07897641

bias f4 [64]
00000000: 7249 813d 53f7 4e3d 5514 9fbd 4a50 803e
00000010: 81b8 0f3b e270 76be 83ed efbd 988f 513e
00000020: 21e9 f0bc bc7e 2a3c 50ec 15be ea15 873e
00000030: adbe c73e 6bf6 1fbe 92ee 44be d5a2 2c3d
00000040: 639e 8bbe f662 1ebe 3527 693d 956b 3abe
00000050: e622 8d3c fd8e 71be 03be eb3d 88bb 8cbc
00000060: 2a67 7d3d da9d 50bd 86e5 06be 8c5e b33e
00000070: 9846 4abe 6e3d 093e 84a4 50bd 62a9 35be
00000080: 6f7c 68be d16f 4e3e 5f46 603d ab15 45be
00000090: a92d 693e 35a7 00be 6a56 323e 4744 e73c
000000a0: 8e05 193d 7cdd 38bd fa06 4abe f530 6d3e
000000b0: 16c9 093e 26e7 1cbe 0590 0bbe 1580 08be
000000c0: 5633 0d3e 64c0 99be 4d9d e8bc 7327 12be
000000d0: a551 513d 0177 09be f5f2 18be 926c 36bc
000000e0: 39de 083e 2fb0 993d 5f7a 40be bedd e23d
000000f0: 2f23 76be 9018 423e 017c 873d 5c74 19be
0.06312837 0.050528836 -0.0776755 0.25061256 0.0021930041 -0.24066499 -0.11715224 0.20464933
-0.02940804 0.010406192 -0.14640927 0.26383907 0.39012662 -0.15621345 -0.19231632 0.042147476
-0.27269277 -0.15467438 0.056922156 -0.18205102 0.017228555 -0.23589702 0.11510851 -0.017179266
0.061865963 -0.05093179 -0.13173494 0.3503307 -0.19753492 0.1340234 -0.050938144 -0.17740396
-0.22703718 0.20159842 0.05475461 -0.19246547 0.22771324 -0.12563784 0.17415777 0.0282308
0.037358813 -0.0451331 -0.19729224 0.23163207 0.13455614 -0.15322551 -0.13629158 -0.1333011
0.13789114 -0.30029595 -0.02839532 -0.14272861 0.051103253 -0.13424303 -0.14936431 -0.011134284
0.13366021 0.075043075 -0.18796681 0.1107745 -0.24036859 0.18954682 0.06615449 -0.14985794

weight f4 [1, 64]
00000000: 1146 38bf 0694 573f ec3b 463f 51ad 4a3f
00000010: 48e8 06bf 01b3 2f3f 3553 46bf 8a16 3cbf
00000020: 45d8 71bf ace1 4b3f 6f85 3b3f b7e8 4d3f
00000030: ed4f 453f 9d2e 4bbf c125 343f 47c6 39bf
00000040: 966c 4abf 9ab2 41bf dca2 3ebf 997e 383f
00000050: 7eba 2f3f 72c4 3c3f 9e21 37bf 6614 3cbf
00000060: 0304 35bf 8b26 47bf 8d0c 353f a399 423f
00000070: f3a2 1f3f 5783 33bf 685c 59bf e588 3b3f
00000080: fe60 333f 868a 17bf 96e1 2f3f 7bda 263f
00000090: 2fef 2cbf 3390 2b3f 742b 32bf 919c 31bf
000000a0: ecb7 4cbf 7f33 2a3f eca2 383f c187 32bf
000000b0: 2092 3dbf 5725 253f 9e4e 45bf cb55 37bf
000000c0: df1c 34bf b3fa 3dbf 18a0 4a3f 051f 343f
000000d0: 8d06 40bf 247e 31bf 6887 3d3f ac5b 33bf
000000e0: 120a 2fbf 1b91 3dbf 2c07 45bf 885e 4d3f
000000f0: a754 41bf f566 38bf 1751 443f 93d4 323f
-0.7198191 0.8421024 0.77435184 0.7917071 -0.52698183 0.68632513 -0.77470714 -0.7347189
-0.94470626 0.7964122 0.7325048 0.8043322 0.7707508 -0.79368 0.7037011 -0.7256817
-0.7907194 -0.7566315 -0.74467254 0.7206817 0.6864394 0.7373725 -0.7153567 -0.73468626
-0.70709246 -0.77793187 0.70722276 0.7601568 0.62358016 -0.70122284 -0.84906626 0.7325576
0.70069873 -0.59195745 0.6870359 0.65177125 -0.67552465 0.67016906 -0.69597554 -0.69379526
-0.7996814 0.66484827 0.721236 -0.69738394 -0.74051094 0.645101 -0.77073085 -0.71615285
-0.70356554 -0.7421066 0.79150534 0.7035983 -0.75009996 -0.693331 0.7403474 -0.70061755
-0.6837474 -0.7404954 -0.7696407 0.8022237 -0.75519794 -0.720321 0.76686233 0.6985561
