Reinforcement learning/new/data_plot/InmoovGymEnvPPO/InmoovGymEnvPPO_s3/pyt_save/model.pt (torch_old, 49067 bytes, 12 tensors)

log_std f4 [3]
-3.089178 -3.212028 -3.1511738
00000000: 18b5 45c0 de91 4dc0 d5ac 49c0

weight f4 [64, 3]
-0.86295485 -0.50962096 -0.18736848 -0.7689937 0.0055673737 -0.69379914 0.63816315 0.23342833
0.26092547 0.7967213 -0.17154594 0.5711063 -0.6420862 0.017499933 -0.8736516 0.26606584
-0.7587055 0.738573 0.44649383 0.4867616 0.3682047 -0.42570376 0.88051957 -1.1032994
-0.6448942 -0.3391675 -0.35023576 0.36008912 -0.6383703 -0.5378116 -0.4572505 0.6355916
-0.67972803 -0.53965425 -0.5355154 -0.3446044 -0.108284004 -0.6522778 -0.52443594 -0.123892285
0.112925135 0.056722436 0.29537442 -0.6873274 0.36269408 -0.028198099 -0.45627886 -0.3869778
-0.29477504 0.90217143 0.23197374 -0.39174145 -0.15715246 0.6855372 0.26705813 0.25716513
-0.66074765 0.50681037 0.29524598 -0.4057226 0.5027748 0.14796942 -0.4509832 -0.21475598
-0.51953715 -0.8037037 -0.018645061 -0.69874924 0.56421834 0.21589403 0.17978318 0.8153083
-0.4715805 0.06336016 0.71851015 0.28716457 0.06126196 0.9157344 0.111858204 0.7658887
-0.8850555 -0.56128407 -0.6129436 0.097918496 0.854129 -0.7749054 0.48280346 -0.52740556
-0.4817467 -0.02171005 -0.62856156 0.6720903 -0.8123739 0.9443387 -0.07086997 0.05158048
-0.58228797 0.5794848 -0.113363214 -0.5505474 0.18520975 0.5190381 0.2249836 -0.41349766
0.1668786 -0.25355774 -0.2424597 -0.37997562 0.8481521 -0.5928627 0.2428832 0.42977768
-0.46531144 -0.8528542 -0.34448865 -0.8327974 0.99614245 0.68764687 -0.029885188 0.9695374
0.41158277 -0.69751185 -0.6027534 -0.13147995 -0.6699875 -0.48605794 0.33901474 -0.14478599
-0.4054693 0.0059436895 0.67062587 0.014435037 -0.027119396 0.34429532 -0.628726 0.12433361
0.31610957 0.6870011 -0.75805485 -0.04513743 -0.8493946 -0.12629284 0.034862354 0.27516958
-0.33974236 -0.009788214 0.38252693 -0.67726946 0.32674107 0.90111613 -0.6248879 0.7517272
0.29832026 0.79334444 0.5532363 -0.7895526 0.8821942 -0.2892733 0.11367062 -0.2972418
-0.5699183 0.051669486 0.18926463 0.67785704 -0.95679975 -0.66306955 0.35854632 -0.0798543
0.16516833 -0.31267864 -0.11782287 0.35990015 -1.069831 0.48731664 0.2971212 0.09422532
-0.34339124 0.638801 0.56936914 -0.49457684 0.7351525 0.021242078 0.29969636 0.6295673
-0.04499125 0.04470252 0.33268362 0.6526396 -0.91276187 -0.39037797 0.75233185 -0.49413854
00000000: 9cea 5cbf 8576 02bf 86dd 3fbe c5dc 44bf
00000010: 846e b63b d29c 31bf a95e 233f d607 6f3e
00000020: 0698 853e edf5 4b3f bda9 2fbe 0634 123f
00000030: c35f 24bf 055c 8f3c a2a7 5fbf c839 883e
00000040: 863a 42bf 1f13 3d3f d79a e43e d138 f93e
00000050: 5485 bc3e d8f5 d9be bb69 613f ea38 8dbf
00000060: c917 25bf 5da7 adbe 1a52 b3be 9a5d b83e
00000070: 3c6c 23bf 05ae 09bf bd1c eabe 22b6 223f
00000080: a802 2ebf c826 0abf 8a17 09bf fd6f b0be
00000090: 01c4 ddbd aefb 26bf 6f41 06bf 3dbb fdbd
000000a0: 4b45 e73d c955 683d 513b 973e b0f4 2fbf
000000b0: 0ab3 b93e b3ff e6bc 629d e9be f421 c6be
000000c0: c1ec 96be b5f4 663f 868a 6d3e 5692 c8be
000000d0: 93ec 20be 5e7f 2f3f d8bb 883e 26ab 833e
000000e0: c226 29bf 53be 013f 7b2a 973e dfba cfbe
000000f0: d9b5 003f 4c85 173e 45e7 e6be fee8 5bbe
00000100: 6300 05bf 87bf 4dbf 87bd 98bc 3be1 32bf
00000110: 9d70 103f 5313 5d3e 1519 383e 0bb8 503f
00000120: 0073 f1be f9c2 813d 48f0 373f 3c07 933e
00000130: d2ed 7a3d 926d 6a3f ea15 e53d 4811 443f
00000140: ff92 62bf 50b0 0fbf dfe9 1cbf 7e89 c83d
00000150: 33a8 5a3f 3360 46bf 0432 f73e 0d04 07bf
00000160: 81a7 f6be 46d9 b1bc 69e9 20bf 1c0e 2c3f
00000170: bcf7 4fbf 2ec0 713f 4624 91bd 0e46 533d
00000180: d310 15bf 1e59 143f f92a e8bd adf0 0cbf
00000190: a0a7 3d3e aedf 043f 1a62 663e f7b5 d3be
000001a0: 39e2 2a3e 52d2 81be 5b47 78be 2a8c c2be
000001b0: 7f20 593f dac5 17bf 60b6 783e d20b dc3e
000001c0: 4d3d eebe a754 5abf d160 b0be 3632 55bf
000001d0: 3103 7f3f a009 303f c8d1 f4bc 9a33 783f
000001e0: faba d23e 2390 32bf 0c4e 1abf aea2 06be
000001f0: 4d84 2bbf 96dc f8be 5793 ad3e c742 14be
00000200: ac99 cfbe 48c3 c23b 23ae 2b3f ef80 6c3c
00000210: 7f29 debc 7a47 b03e 30f4 20bf 9fa2 fe3d
00000220: 1dd9 a13e 4edf 2f3f e20f 42bf 07e2 38bd
00000230: ed71 59bf e952 01be d4cb 0e3d 07e3 8c3e
00000240: b6f2 adbe bf5e 20bc 92da c33e 8861 2dbf
00000250: 9b4a a73e 8caf 663f a7f8 1fbf 3271 403f
00000260: 6fbd 983e 9f18 4b3f e5a0 0d3f 1f20 4abf
00000270: 7bd7 613f a11b 94be 24cc e83d 1430 98be
00000280: 2ae6 11bf 62a3 533d 96ce 413e 0a88 2d3f
00000290: d4f0 74bf edbe 29bf 6293 b73e a78a a3bd
000002a0: e321 293e 6a17 a0be 1e4d f1bd d544 b83e
000002b0: 39f0 88bf 9181 f93e 4520 983e 34f9 c03d
000002c0: fad0 afbe 7688 233f 2dc2 113f 2d39 fdbe
000002d0: f432 3c3f de03 ae3c cd71 993e 532b 213f
000002e0: bf48 38bd fd19 373d 8255 aa3e 6413 273f
000002f0: c3aa 69bf 9fdf c7be d298 403f baff fcbe

bias f4 [64]
-0.31249785 0.031047437 0.20674013 0.30309236 0.009849519 0.14506899 -0.24333423 0.54039836
-0.36819774 0.34781688 0.28128195 0.47932386 0.47744656 -0.1686985 0.40179682 -0.40752238
0.3713918 -0.33101654 -0.39924482 -0.39209837 0.53402853 0.14238086 -0.38720274 -0.3944113
0.086462915 -0.07538804 0.12560178 0.34781247 -0.27435344 -0.48789352 0.013770158 0.35249346
0.32220796 0.014152821 -0.13654464 0.16803792 0.37016624 -0.46105894 -0.052828528 0.43935603
0.40642136 0.49665898 0.1999897 0.5580199 -0.528152 0.11471255 0.03895197 0.387934
0.12257025 0.34905156 -0.47167617 -0.08594734 0.20795 0.35305765 0.13532056 0.3377276
-0.16017996 -0.03531012 0.49674135 0.3452055 0.3916607 -0.48070908 -0.009942151 -0.49280113
00000000: b8ff 9fbe 3257 fe3c afb3 533e ec2e 9b3e
00000010: e05f 213c f78c 143e 9c2c 79be 8c57 0a3f
00000020: 6a84 bcbe 0e15 b23e 3004 903e f069 f53e
00000030: e073 f43e 4dbf 2cbe 50b8 cd3e c6a6 d0be
00000040: 1127 be3e 007b a9be d169 ccbe 1ec1 c8be
00000050: 18b6 083f 4acc 113e 703f c6be 47f0 c9be
00000060: 7813 b13d 0b65 9abd c19d 003e 7a14 b23e
00000070: 0e78 8cbe 2ecd f9be 3b9c 613c 067a b43e
00000080: 71f8 a43e 3ce1 673c 5cd2 0bbe 2212 2c3e
00000090: 6e86 bd3e eb0f ecbe ba62 58bd 46f3 e03e
000000a0: 7616 d03e 164a fe3e 1aca 4c3e 64da 0e3f
000000b0: f834 07bf 6aee ea3d 1a8c 1f3d 499f c63e
000000c0: 1c06 fb3d e3b6 b23e 8a7f f1be 2905 b0bd
000000d0: d8f0 543e f9c3 b43e 7991 0a3e a2ea ac3e
000000e0: 3706 24be 58a1 10bd e254 fe3e c6be b03e
000000f0: c087 c83e 801f f6be 67e4 22bc 6e50 fcbe

weight f4 [64, 64]
0.14797845 0.204714 0.038862225 -0.11816548 0.027607853 -0.1288904 -0.021295493 0.064077064
0.008242591 -0.10016046 -0.045295313 0.046268497 0.02794806 0.07605193 0.019688617 -0.014578738
-0.11654372 -0.003764287 -0.06069665 -0.1047668 -0.077705786 -0.004973208 0.03739028 -0.05300369
-0.0971135 -0.042606663 -0.04082125 -0.050060213 0.08509228 -0.09835456 0.010653867 0.063204475
0.083819546 0.087754816 -0.004723355 0.075664334 -0.13870192 0.0063087447 0.17101157 -0.10335319
-0.10573603 0.12228209 0.044886604 0.06381198 -0.03388989 -0.097546935 0.08297346 -0.04894935
0.01738231 -0.039571274 -0.0052269637 -0.17348823 -0.08122982 -0.07538351 -0.014549121 0.0593098
0.07817453 0.09623184 -0.100834295 -0.03491697 -0.046589028 0.092535734 -0.04812116 0.119840354
0.15565357 0.33605337 -0.1455062 -0.1788166 0.47583973 -0.351796 -0.08514353 0.03550638
0.042480294 -0.10916688 0.006291099 0.061725028 -0.045808993 0.04852299 -0.045032933 0.0859127
-0.09595567 0.100962564 0.14513388 0.1013927 -0.097670734 0.12653756 0.02341111 -0.10395636
-0.12971961 -0.28705406 -0.027142864 0.027156718 -0.10710836 0.06811053 0.17510353 -0.09839691
-0.061993916 -0.1267629 0.10100962 0.08841349 -0.12066546 0.024362477 -0.13550034 -0.21814914
-0.10160812 -0.02324679 -0.058963228 0.020245975 0.118730985 -0.20829694 0.4411663 -0.07428033
-0.09717783 0.07279076 -0.030975427 0.04860019 -0.014406911 0.014809704 -0.026111078 0.12263447
-0.056093767 -0.0044963253 0.12000293 -0.040797837 -0.11861502 -0.117436446 -0.03765152 0.000702398
-0.049865577 -0.12574333 0.062617615 -0.036829058 -0.11677818 -0.05763001 0.09052682 -0.0032428117
0.01821705 0.001485246 0.10273275 -0.0095257675 -0.04084965 -0.054892533 -0.07883717 -0.034916326
0.01154627 0.05065737 0.0045822556 -0.032009892 0.09850419 -0.035930734 -0.034896877 -0.053882875
-0.0798602 -0.023707047 0.04290234 0.16967495 -0.017353358 0.08725661 -0.05618579 0.042746525
0.087861635 -0.09526355 -0.006806273 -0.05381823 -0.021805866 0.10955239 -0.074062265 0.094981186
-0.023711832 -0.1100859 -0.01038299 -0.014606428 -0.08243751 0.11845833 -0.13491 0.10930248
-0.029767327 -0.011057134 0.06983601 -0.030581871 -0.07242599 -0.028151693 0.05003329 -0.08853205
-0.081757195 0.06313249 0.024934066 -0.023780018 0.12239288 -0.07407678 0.03776614 -0.03427865
-0.14360721 -0.1025515 0.108438395 0.11383307 -0.14790769 0.028445212 0.073567174 -0.051652376
-0.019621776 -0.042732693 -0.060574003 0.028899916 0.07658607 0.07819594 -0.024359811 -0.11317433
-0.04294441 -0.023576733 -0.003999485 0.017729359 0.040750664 -0.1136841 -0.120216124 0.057203557
0.08995485 -0.047379505 0.01922626 -0.07002942 -0.08567617 0.038226265 0.060018875 0.10659247
-0.07482434 0.0049816715 0.014750783 0.08858197 0.057376806 -0.005974683 0.051525746 0.0063201776
-0.13599086 0.059484594 -0.09724044 0.006696372 0.04474554 -0.07742548 0.021478303 -0.11111092
0.038637027 0.09412136 0.13545743 0.087941565 0.03558957 0.08510177 -0.03463044 0.037128855
-0.045240276 -0.11949242 0.12165117 -0.10577736 -0.05714446 0.010236369 0.0050402726 0.0055785864
00000000: aa87 173e 8ca0 513e ff2d 1f3d be00 f2bd
00000010: dd29 e23c d8fb 03be e373 aebc d63a 833d
00000020: ef0b 073c ed20 cdbd 9487 39bd 0984 3d3d
00000030: 54f3 e43c 1dc1 9b3d 064a a13c a9db 6ebc
00000040: 79ae eebd 42b2 76bb 0d9d 78bd fa8f d6bd
00000050: 3624 9fbd 4bf6 a2bb 8d26 193d 661a 59bd
00000060: 71e3 c6bd 5384 2ebd 2f34 27bd f00b 4dbd
00000070: dc44 ae3d 1e6e c9bd 8f8d 2e3c 5971 813d
00000080: 95a9 ab3d ccb8 b33d 60c6 9abb e7f5 9a3d
00000090: e007 0ebe 96b9 ce3b a81d 2f3e d6aa d3bd
000000a0: 228c d8bd 086f fa3d 04db 373d dbaf 823d
000000b0: 20d0 0abd b0c6 c7bd fded a93d 1d7f 48bd
000000c0: 5965 8e3c 7d15 22bd f346 abbb e6a6 31be
000000d0: d25b a6bd ab62 9abd 705f 6ebc d5ee 723d
000000e0: f819 a03d 3315 c53d 3682 cebd 1905 0fbd
000000f0: 23d4 3ebd 6083 bd3d b21a 45bd dc6e f53d
00000100: a663 1f3e 300f ac3e 94ff 14be b31b 37be
00000110: 44a1 f33e 9b1e b4be bb5f aebd 236f 113d
00000120: d1ff 2d3d e392 dfbd 9025 ce3b 62d3 7c3d
00000130: 36a2 3bbd 0bc0 463d 7474 38bd fff2 af3d
00000140: 6884 c4bd 76c5 ce3d fa9d 143e faa6 cf3d
00000150: 9807 c8bd 1093 013e a8c8 bf3c 12e7 d4bd
00000160: 38d5 04be c0f8 92be b65a debc c477 de3c
00000170: a15b dbbd 897d 8b3d 574e 333e 5284 c9bd
00000180: 55ed 7dbd 22ce 01be 22de ce3d 2212 b53d
00000190: 741f f7bd d193 c73c 9ac0 0abe 7d62 5fbe
000001a0: eb17 d0bd 0d70 bebc 6d83 71bd e3da a53c
000001b0: 3b29 f33d cb4b 55be 8de0 e13e 4920 98bd
000001c0: 2c05 c7bd 5213 953d 2ec0 fdbc fe10 473d
000001d0: f70a 6cbc 67a4 723c e6e6 d5bc c827 fb3d
000001e0: 94c2 65bd e955 93bb 19c4 f53d a21b 27bd
000001f0: 6eec f2bd 8582 f0bd 7b38 1abd 2221 383a
00000200: d93f 4cbd dcc2 00be aa3d 803d 11da 16bd
00000210: 6629 efbd 720d 6cbd 2066 b93d 5a85 54bb
00000220: ec3b 953c 96ac c23a 8c65 d23d f711 1cbc
00000230: f651 27bd fed6 60bd 6275 a1bd 6c04 0fbd
00000240: 912c 3d3c 1a7e 4f3d bf26 963b ce1c 03bd
00000250: 91bc c93d 1b2c 13bd 07f0 0ebd 4ab4 5cbd
00000260: bf8d a3bd 4835 c2bc 5dba 2f3d 45bf 2d3e
00000270: a128 8ebc 98b3 b23d 1223 66bd fb16 2f3d
00000280: cdf0 b33d 8919 c3bd 2807 dfbb 8170 5cbd
00000290: 37a2 b2bc 015d e03d f5ad 97bd 7f85 c23d
000002a0: 513f c2bc b774 e1bd 6b1d 2abc cd4f 6fbc
000002b0: ffd4 a8bd 489a f23d d925 0abe fbd9 df3d
000002c0: 9cda f3bc fb28 35bc 2f06 8f3d d586 fabc
000002d0: 1454 94bd 619e e6bc b5ef 4c3d 4b50 b5bd
000002e0: 5170 a7bd 9b4b 813d 8742 cc3c 50ce c2bc
000002f0: 1ea9 fa3d 91b5 97bd abb0 1a3d c567 0cbd
00000300: c50d 13be 8506 d2bd f314 de3d 5021 e93d
00000310: 1d75 17be ef05 e93c 63aa 963d 7191 53bd
00000320: d9bd a0bc 7a08 2fbd 721c 78bd 84bf ec3c
00000330: 28d9 9c3d 3125 a03d 3a8e c7bc f1c7 e7bd
00000340: 7ae6 2fbd fe23 c1bc 1d0e 83bb 293d 913c
00000350: 2bea 263d 36d3 e8bd df33 f6bd 474e 6a3d
00000360: 403a b83d 0311 42bd 6480 9d3c 966b 8fbd
00000370: fd76 afbd 2593 1c3d 5ad6 753d 274d da3d
00000380: 813d 99bd 4a3d a33b 45ad 713c 776a b53d
00000390: f103 6b3d 46c7 c3bb a90c 533d 7e19 cf3b
000003a0: 3041 0bbe 1ea6 733d ff25 c7bd 3d6d db3b
000003b0: 1947 373d 4091 9ebd 44f3 af3c 1f8e e3bd
000003c0: dc41 1e3d b3c2 c03d 5ab5 0a3e b51a b43d
000003d0: 5ec6 113d d649 ae3d a6d8 0dbd 6d14 183d
000003e0: de4d 39bd 71b8 f4bd 4024 f93d cda1 d8bd
000003f0: 4f10 6abd 72b6 273c df28 a53b 93cc b63b

bias f4 [64]
0.08989955 0.01635819 -0.07075954 -0.034049887 -0.091639906 -0.094922446 0.05008955 -0.08903385
-0.06426058 0.039246894 0.013879984 -0.075911686 0.032295145 -0.0966164 -0.009302108 -0.028123956
0.048591033 -0.11193192 0.11038256 -0.04251787 -0.06496894 -0.10552551 0.036125552 -0.063273266
0.092513524 -0.06353146 0.031621087 0.09178245 0.004392191 0.08535224 -0.05744709 0.082422614
0.03903045 -0.0067097805 0.031571753 -0.12603764 -0.054263424 0.06379776 -0.0082221525 -0.1215791
-0.0154578015 0.04870632 -0.07262979 -0.04639124 -0.076366454 -0.0964788 -0.0036323434 -0.04429646
-0.025024252 0.11675476 -0.10188802 -0.023819856 0.06170536 0.057110414 -0.024614073 0.04127917
-0.070898846 0.12087721 -0.074336216 0.0049264566 -0.075391695 -0.031068526 0.03162814 -0.061182696
00000000: 411d b83d 9c01 863c 61ea 90bd e577 0bbd
00000010: b4ad bbbd b366 c2bd b32a 4d3d 6157 b6bd
00000020: 0d9b 83bd 5ac1 203d df68 633c 9677 9bbd
00000030: ea47 043d d2de c5bd de67 18bc 3664 e6bc
00000040: 6407 473d 903c e5bd 4010 e23d 3827 2ebd
00000050: 700e 85bd c21d d8bd 63f8 133d 6a95 81bd
00000060: bb77 bd3d c81c 82bd 1d85 013d 70f8 bb3d
00000070: 5eec 8f3b 28cd ae3d a44d 6bbd 30cd a83d
00000080: 65de 1f3d b8dd dbbb 6251 013d 0310 01be
00000090: 5343 5ebd 66a8 823d 35b6 06bc 77fe f8bd
000000a0: b842 7dbc 4780 473d edbe 94bd be04 3ebd
000000b0: 0466 9cbd ad96 c5bd 9c0c 6ebb 3470 35bd
000000c0: a9ff ccbc 1f1d ef3d abaa d0bd dc21 c3bc
000000d0: c2be 7c3d 9cec 693d 74a3 c9bc 5914 293d
000000e0: 6a33 91bd 788e f73d 963d 98bd 1d6e a13b
000000f0: f666 9abd 6c83 febc 828c 013d b59a 7abd

weight f4 [3, 64]
0.12787466 0.17730063 0.011925948 0.007438356 -0.13750958 0.15547083 0.07070071 -0.01405367
0.12711859 0.1300879 -0.122773215 0.14834286 -0.09540909 -0.098069884 -0.041444983 0.097293384
-0.044116545 -0.08405521 -0.09524788 -0.21124804 0.029794905 0.1073939 0.108564965 -0.16946815
0.080922164 0.018976178 -0.059962858 0.10935395 -0.08452074 0.40375787 0.036197484 -0.121493936
-0.008215772 0.062349435 0.04776558 -0.030194618 0.09403242 -0.013529686 0.06886498 -0.094688214
-0.02122057 -0.08684202 -0.0407483 0.11543296 -0.0014775504 -0.09986278 0.11603011 0.22954595
0.10102602 0.0854146 -0.1166849 -0.11751707 -0.0408788 0.08312195 0.07218607 0.11615823
-0.11959305 0.13710833 -0.04373949 -0.06879275 -0.08724043 0.13193326 0.10470999 -0.038324554
0.06683141 0.18709812 -0.04675643 -0.052488722 -0.0017621687 0.1878615 -0.12734535 0.012726812
-0.044344638 0.26379073 -0.014980972 -0.09254832 -0.058673657 -0.050712474 -0.11358794 0.09618714
0.07356507 -0.026653979 -0.19839355 -0.18226142 -0.07490687 -0.038597006 0.18225186 -0.13417788
0.09089463 -0.08536773 -0.017328067 -0.014853972 0.20706093 -0.100672394 -0.04778109 -0.029483957
-0.11987643 -0.16236475 -0.21612684 0.02912863 -0.24630338 0.057880864 -0.09113238 -0.03377101
0.10429202 0.08083001 -0.11303422 0.088504225 0.090073064 0.12939706 0.11997514 0.10781384
0.016060317 0.0274701 -0.18233399 -0.11159204 0.071517766 -0.12215113 -0.058946203 0.09660788
0.041495845 -0.13134211 0.11395926 0.39389676 -0.065282084 -0.17039384 -0.110840246 0.024495395
0.07724988 0.042702075 -0.07144914 -0.05903528 -0.045582406 -0.04282456 -0.0016589279 -0.026858736
-0.05713334 0.010557856 -0.12393746 0.030290607 -0.11187032 -0.09810957 -0.048722226 0.0014844802
0.19123998 -0.050313737 0.03345177 -0.081240036 0.028153427 0.02761047 0.057537094 0.18060495
-0.05821591 -0.1407139 0.1171635 -0.033416588 0.043263424 0.07778032 0.048787374 -0.055095788
-0.11559414 -0.030795159 -0.11049368 -0.04022978 -0.1413095 -0.28318498 -0.14037205 0.004568522
0.14032175 -0.123666026 0.059209 -0.013867021 -0.09202297 -0.018096182 -0.016445523 0.032337416
0.06199817 -0.14460836 -0.17080367 -0.10702113 -0.013681225 -0.07977754 0.05338127 -0.027422609
0.10572136 0.12429137 -0.09500059 -0.3310466 -0.0067897756 -0.07789249 0.098385766 -0.017710675
00000000: 93f1 023e 4c8e 353e 0d65 433c 74bd f33b
00000010: 50cf 0cbe bf33 1f3e 89cb 903d 5d41 66bc
00000020: 602b 023e c335 053e 8670 fbbd 31e7 173e
00000030: d765 c3bd ddd8 c8bd 37c2 29bd c141 c73d
00000040: 8db3 34bd 2325 acbd 5211 c3bd 6851 58be
00000050: 7214 f43c 55f1 db3d 4f57 de3d 0f89 2dbe
00000060: 85ba a53d ee73 9b3c 9d9b 75bd f7f4 df3d
00000070: 3619 adbd 5ab9 ce3e d043 143d d0d1 f8bd
00000080: 729b 06bc 1f62 7f3d d7a5 433d b45a f7bc
00000090: 1294 c03d 9eab 5dbc 1509 8d3d e5eb c1bd
000000a0: c3d6 adbc 3bda b1bd b0e7 26bd 1e68 ec3d
000000b0: 5daa c1ba db84 ccbd 32a1 ed3d 180e 6b3e
000000c0: bbe6 ce3d daed ae3d 7ef8 eebd caac f0bd
000000d0: 8770 27bd d73b aa3d 4ad6 933d 5ee4 ed3d
000000e0: 33ed f4bd 2066 0c3e 2e28 33bd 37e3 8cbd
000000f0: 1cab b2bd 8319 073e 3172 d63d 35fa 1cbd
00000100: e8de 883d a696 3f3e ac83 3fbd 6afe 56bd
00000110: 92f8 e6ba c45e 403e d266 02be 1e84 503c
00000120: b9a2 35bd 940f 873e c072 75bc f989 bdbd
00000130: ca53 70bd e2b7 4fbd cba0 e8bd c3fd c43d
00000140: 49a9 963d 7259 dabc ae27 4bbe bda2 3abe
00000150: c668 99bd e517 1ebd 3ba0 3a3e ed65 09be
00000160: f726 ba3d 47d5 aebd 97f3 8dbc 135e 73bc
00000170: c807 543e 542d cebd 1bb6 43bd 5788 f1bc
00000180: c681 f5bd f242 26be 5b50 5dbe 2a9f ee3c
00000190: f436 7cbe 7c14 6d3d 9da3 babd 7853 0abd
000001a0: 0e97 d53d 348a a53d 7c7e e7bd b441 b53d
000001b0: 3a78 b83d aa80 043e 87b5 f53d 81cd dc3d
000001c0: ed90 833c fa08 e13c c3b5 3abe 5e8a e4bd
000001d0: e877 923d 5f2a fabd 9371 71bd 5ada c53d
000001e0: 8cf7 293d 8c7e 06be 7963 e93d d6ac c93e
000001f0: 9db2 85bd b97b 2ebe 3600 e3bd 91aa c83c
00000200: 2f35 9e3d 5fe8 2e3d ed53 92bd face 71bd
00000210: 9eb4 3abd ce68 2fbd 6270 d9ba da06 dcbc
00000220: a604 6abd dcfa 2c3c ecd2 fdbd 0224 f83c
00000230: 441c e5bd aced c8bd f590 47bd e492 c23a
00000240: 6ad4 433e c715 4ebd b904 093d 2d61 a6bd
00000250: 04a2 e63c 5a2f e23c 04ac 6b3d 81f0 383e
00000260: ce73 6ebd 4e17 10be 6bf3 ef3d d5df 08bd
00000270: fd34 313d 4a4b 9f3d 45d5 473d 1fac 61bd
00000280: 9fbc ecbd 2146 fcbc 834a e2bd fbc7 24bd
00000290: 70b3 10be 9ffd 90be b1bd 0fbe 8ab3 953b
000002a0: 81b0 0f3e 9d44 fdbd 2385 723d 8032 63bc
000002b0: 8a76 bcbd 723e 94bc c3b8 86bc 3d74 043d
000002c0: cbf1 7d3d 3714 14be 28e7 2ebe e52d dbbd
000002d0: 3727 60bc 6862 a3bd 52a6 5a3d 61a5 e0bc
000002e0: 7184 d83d 798c fe3d ab8f c2bd f17e a9be
000002f0: c47c debb 1986 9fbd 7a7e c93d fa15 91bc

bias f4 [3]
0.0784198 0.11136945 0.034018055
00000000: 8f9a a03d ab15 e43d 8456 0b3d

weight f4 [64, 3]
1.2145613 1.36263 3.7838373 -4.2448487 1.4780835 -1.3781809 -1.4428049 -0.0014431615
0.835212 -2.6455193 0.5363221 -0.9978419 -1.386695 -1.4407843 0.7205293 -1.8356578
-0.7654286 0.02877188 0.57564133 2.3384342 -1.3179771 0.81232285 0.36251026 -0.5181503
1.3237803 2.5939748 -0.5448996 1.3330764 0.5624242 0.38287902 0.74676657 -0.07960865
2.787506 0.03458196 0.76623327 -0.44229925 -0.84315974 -0.754279 0.70885193 3.7161672
-0.7869381 0.535234 -0.93614376 -2.4262369 0.9438953 -0.14814892 0.2117009 0.11749331
1.5493172 -1.2592684 -0.44055325 0.25640944 0.36682355 -0.6205899 -0.9002839 -1.6040597
-3.3540854 -0.19989589 -1.7212613 2.323653 0.20538844 0.6166361 -0.90378857 0.56146365
0.9786167 -0.15314351 -0.20448972 0.28489038 1.1551225 -0.09199687 -0.16452901 -0.7527459
-1.039653 0.96305186 -0.1149521 1.0153096 -2.3088417 -0.15650165 0.97360945 0.6073625
2.9635582 -0.25560272 -0.6555312 -0.15238701 1.590389 0.2523914 -0.17397436 -0.22793344
0.9868711 2.0085433 -0.83874863 1.3333899 -0.5368259 -0.56082386 -0.20758496 0.2097144
1.3707229 0.07341872 -1.1195453 1.4252696 0.42456478 0.3036967 -1.2803584 -1.4192781
-0.09476855 -0.3588187 -0.39336807 -0.5086542 1.1530036 0.6338696 -0.7463769 0.56051874
0.058608767 0.23792489 2.5154686 0.1639367 -0.91787076 -1.0158157 2.6214514 0.3687759
-0.6531949 -1.0360173 0.010934932 1.4576539 0.6603064 1.2898698 1.8102092 -1.8639135
3.4978282 -2.5241406 -1.3409001 -0.4089071 -0.07660179 1.2607259 2.0296335 1.1161535
0.9531545 3.1106572 -1.5368611 -0.49536073 1.0460074 0.21615033 -1.0134541 1.6811159
0.1424931 1.2490941 -2.6295936 -0.9602116 -1.2328616 -0.020445336 0.18183757 -0.52080935
1.2205994 -0.40338963 0.004047707 -0.46054503 -0.7621705 0.16916563 -3.5005302 -0.2517586
-0.4584283 0.039748915 0.78045857 -0.63944036 -2.0440052 -0.49181327 -0.41728088 -0.1510803
0.6662664 0.9551566 0.118026026 0.010981591 -3.0620027 2.7365634 -1.5044793 -0.34829167
0.22571689 0.63188523 0.36981168 -0.18339305 0.8401762 -0.2854581 2.800903 -0.06395439
2.1149545 -1.92038 0.7194587 -0.68579364 1.4791561 0.0388567 1.0404971 -0.4111057
00000000: bf76 9b3f a96a ae3f 642a 7240 cdd5 87c0
00000010: d731 bd3f 3b68 b0bf d5ad b8bf 7728 bdba
00000020: 74d0 553f 3050 29c0 684c 093f 9172 7fbf
00000030: 397f b1bf 9f6b b8bf 9c74 383f d6f6 eabf
00000040: 21f3 43bf 01b3 eb3c 3b5d 133f e8a8 1540
00000050: 79b3 a8bf 64f4 4f3f f29a b93e 80a5 04bf
00000060: a271 a93f af03 2640 8a7e 0bbf 3fa2 aa3f
00000070: 08fb 0f3f b808 c43e 182c 3f3f dc09 a3bd
00000080: 8066 3240 d0a5 0d3d dd27 443f 0c75 e2be
00000090: 51d9 57bf 6e18 41bf 5277 353f afd5 6d40
000000a0: c674 49bf 1805 093f 1ea7 6fbf 7747 1bc0
000000b0: 1fa3 713f 5ab4 17be 1fc8 583e 55a0 f03d
000000c0: 0750 c63f b52f a1bf 3290 e1be 1948 833e
000000d0: 4cd0 bb3e fbde 1ebf 0179 66bf d451 cdbf
000000e0: 56a9 56c0 82b1 4cbe 4a52 dcbf bbb6 1440
000000f0: 5951 523e dddb 1d3f b05e 67bf 15bc 0f3f
00000100: a086 7a3f a7d1 1cbe c165 51be 27dd 913e
00000110: 0edb 933f db68 bcbd 4b7a 28be f5b3 40bf
00000120: 5913 85bf 918a 763f 026c ebbd aaf5 813f
00000130: 10c4 13c0 f841 20be 783e 793f 1c7c 1b3f
00000140: f0aa 3d40 5cde 82be e5d0 27bf 570b 1cbe
00000150: de91 cb3f 7239 813e 5626 32be 6267 69be
00000160: 96a3 7c3f f98b 0040 3bb8 56bf 85ac aa3f
00000170: 6c6d 09bf 2792 0fbf 2791 54be 5fbf 563e
00000180: d973 af3f 8e5c 963d 434d 8fbf 3c6f b63f
00000190: 8e60 d93e 227e 9b3e c9e2 a3bf e8aa b5bf
000001a0: 0316 c2bd 16b7 b7be 8a67 c9be 2937 02bf
000001b0: 9f95 933f 4745 223f 8e12 3fbf 287e 0f3f
000001c0: bf0f 703d 95a2 733e 70fd 2040 06df 273e
000001d0: 94f9 6abf 4006 82bf dcc5 2740 32d0 bc3e
000001e0: c837 27bf 379c 84bf 6e28 333c 6794 ba3f
000001f0: d709 293f 741a a53f efb4 e73f b894 eebf
00000200: 6bdc 5f40 858b 21c0 9da2 abbf 455c d1be
00000210: 66e1 9cbd 775f a13f 84e5 0140 1ede 8e3f
00000220: ef01 743f 0215 4740 ddb7 c4bf ec9f fdbe
00000230: 92e3 853f 8356 5d3e ddb8 81bf ce2e d73f
00000240: b6e9 113e 51e2 9f3f 434b 28c0 6dd0 75bf
00000250: 69ce 9dbf fa7c a7bc a133 3a3e c353 05bf
00000260: 9a3c 9c3f 1689 cebe a1a2 843b 8fcc ebbe
00000270: 9b1d 43bf c139 2d3e b008 60c0 81e6 80be
00000280: 1db7 eabe c2cf 223d 22cc 473f 5db2 23bf
00000290: fbd0 02c0 f3ce fbbe d7a5 d5be cbb4 1abe
000002a0: 6f90 2a3f 2585 743f a1b7 f13d 22ec 333c
000002b0: daf7 43c0 db23 2f40 c792 c0bf 4953 b2be
000002c0: 5422 673e 3bc3 213f f557 bd3e 63cb 3bbe
000002d0: ca15 573f 9027 92be ff41 3340 85fa 82bd
000002e0: 6a5b 0740 03cf f5bf 722e 383f 2c90 2fbf
000002f0: fd54 bd3f 3428 1f3d 022f 853f 727c d2be

bias f4 [64]
-0.69031435 -0.7800797 0.48499528 -0.44186527 0.21116155 0.09776336 0.012129035 -0.8294085
-0.08232562 -0.17860813 0.29556403 0.014700731 0.57088405 0.8261195 0.08322856 0.3456043
0.5337634 -0.6929624 0.6361228 0.11918299 0.29438344 0.17193352 -0.47944167 -0.7071141
0.43213254 -0.8123726 -0.55159163 -0.05143278 0.35470194 0.15116055 0.2056472 0.9051526
0.6974869 -0.47395894 0.1670153 -0.2162549 0.48724756 -0.0663353 -0.61345243 0.76176393
-0.25055593 -0.38461724 -0.25106797 0.5377617 0.14127433 -0.57841456 0.6912911 -0.16042395
-0.086860575 0.015417451 0.10272386 -0.71822536 0.49205095 -0.71638495 -0.35337216 -0.5974235
0.09769134 -0.020245584 0.52465296 0.7291402 -0.4120226 -0.015971411 -0.21190803 0.15877083
00000000: 71b8 30bf 4eb3 47bf 4d51 f83e 2a3c e2be
00000010: bc3a 583e 2838 c83d dcb8 463c 1e54 54bf
00000020: 569a a8bd 0de5 36be 2b54 973e 56db 703c
00000030: 7525 123f 917c 533f bc73 aa3d 0cf3 b03e
00000040: b8a4 083f fc65 31bf f2d8 223f 3616 f43d
00000050: 6db9 963e 570f 303e 6179 f5be 6e05 35bf
00000060: 7a40 dd3e a7f7 4fbf 1c35 0dbf 2eab 52bd
00000070: 7e9b b53e d5c9 1a3e 2e95 523e 15b8 673f
00000080: 808e 323f bfaa f2be 0f06 2b3e ed71 5dbe
00000090: 8378 f93e cdda 87bd 380b 1dbf f602 433f
000000a0: de48 80be 8dec c4be fb8b 80be c0aa 093f
000000b0: 38aa 103e fa12 14bf 74f8 303f 2d46 24be
000000c0: f5e3 b1bd 7a99 7c3c e360 d23d 9edd 37bf
000000d0: 1aee fb3e 0165 37bf 32ed b4be bff0 18bf
000000e0: 6612 c83d 11da a5bc a84f 063f efa8 3a3f
000000f0: a0f4 d2be 7ad6 82bc 6bfe 58be d294 223e

weight f4 [64, 64]
-0.39105734 -2.3294852 -0.0026572978 -2.5318015 0.5336949 -0.0048937555 -0.6256493 -0.020905405
-0.5214481 0.3864891 1.3271364 -0.35582265 0.6036183 1.8671131 0.68326277 -0.067796886
1.664235 -0.45961216 0.39065674 0.60449547 -0.12857948 -0.16806369 -0.1813151 -0.25991866
-0.39856178 0.60354215 -0.050734825 0.11418753 1.2140381 -0.38028684 -0.4031788 0.16984609
0.2533784 0.20964736 0.39093024 -0.086632885 -0.011160066 0.36523768 0.4465019 -0.5590126
0.1068505 0.7596538 0.40663046 -0.020215757 -0.7427306 0.043204375 0.3255604 0.49388158
-0.5758825 0.3211993 0.877435 -0.46450445 -0.27963683 0.10903534 0.1290581 -0.14268251
-0.2759585 0.71452016 -0.11853996 0.07525202 0.3209538 -0.66264653 0.48763466 -0.26624095
0.17246896 -0.24166673 -0.40715635 0.058105987 0.10190943 0.31318197 -0.15395805 0.37086424
-0.09637953 -0.07709053 0.14116381 -0.32231325 -0.351626 -0.041284632 -0.01006176 -0.48450893
-0.065240055 0.39644977 -0.35880098 0.0871267 -0.14933327 -0.45394602 0.3733716 0.31049815
-0.18784474 0.08261612 0.4661496 0.28170317 -0.3118934 0.12768546 -0.05107557 -0.28244048
-0.3429972 0.4410919 0.19249433 0.33809513 -0.3925624 -0.13785422 -0.015340061 -0.16156937
0.39493537 0.162759 0.23606303 -0.21575756 0.06371577 0.29089496 -0.43216708 0.2383413
0.01962441 0.33091843 -0.23915063 0.3450757 -0.07264868 0.35914168 -0.15642148 0.42178574
-0.23846607 0.20200765 -0.5498746 -0.339805 0.30107045 -0.14120951 0.20142101 -0.37468392
1.4925996 -0.57895505 -0.9335987 -0.9668819 -0.6451557 -0.43874323 0.27781886 0.13101819
-0.1819767 0.46739402 -0.10305697 0.09120294 -0.25588802 0.34576532 0.07260408 0.003615436
0.32260588 0.0030237401 -0.9941539 -0.91398966 0.023264097 0.06359184 -0.18315272 -0.06274072
-0.7914341 1.1705817 0.65468544 -0.07214589 0.64059883 -1.3153933 -0.4952277 0.0023564089
0.28555104 1.2524523 -0.23434487 0.006762467 0.20840476 0.06125058 2.7339025 -0.9187464
-0.11157787 0.2478985 1.2947788 -2.166948 -1.3058096 0.8030039 -0.7505972 -0.11898885
0.34620097 -0.05283561 -0.3521726 -0.0190693 -0.46458456 -0.05212042 1.3044211 -0.03759475
0.12857325 0.33166832 -1.1140429 -0.052379057 0.5401631 0.23873639 0.4175676 0.04342046
1.5070773 1.2115793 0.14270751 0.49884194 -0.64374375 -0.73686534 0.071724735 0.09483749
0.6085734 0.9140704 -0.33060598 0.1332163 -0.35001287 -0.842322 -0.46700993 0.11638633
-1.1321323 0.19291697 -1.6290113 -0.034420602 0.14290164 0.3726554 0.49284935 -0.23457408
0.08207464 -0.4959594 0.87062144 -0.29484674 0.053956825 0.8620861 0.13986154 0.007239768
-0.40013015 0.19363631 -0.72403115 -0.34534597 -0.08289212 0.24574491 0.38839743 0.31529036
-0.3465307 1.1587157 0.5583042 -1.0630227 1.0417233 1.1105636 -0.109451264 0.35387897
0.14764309 -0.2675615 -0.03438902 -0.024340665 -0.5821719 -0.124916315 -0.052682895 -0.11407654
0.24831015 -0.052824847 -0.17398107 0.03376267 0.49320552 0.016096631 0.2574266 0.12910497
00000000: ab38 c8be 4916 15c0 0f26 2ebb 0909 22c0
00000010: 3ba0 083f cc5b a0bb 8d2a 20bf d041 abbc
00000020: 9f7d 05bf e6e1 c53e 9bdf a93f 632e b6be
00000030: bb86 1a3f 90fd ee3f 4fea 2e3f 18d9 8abd
00000040: a705 d53f 4952 ebbe 2904 c83e 37c0 1a3f
00000050: 57aa 03be e318 2cbe aaaa 39be 0f14 85be
00000060: 4a10 ccbe bd81 1a3f 52cf 4fbd 27db e93d
00000070: 9a65 9b3f f5b4 c2be 746d cebe 22ec 2d3e
00000080: d0ba 813e ccad 563e 0228 c83e 956c b1bd
00000090: b6d8 36bc 6f00 bb3e e69b e43e 731b 0fbf
000000a0: 6fd4 da3d ac78 423f de31 d03e 849b a5bc
000000b0: 9823 3ebf 12f7 303d daaf a63e 0cde fc3e
000000c0: 096d 13bf 3c74 a43e 959f 603f 87d3 edbe
000000d0: 8f2c 8fbe ec4d df3d ce27 043e 5d1b 12be
000000e0: 6f4a 8dbe cbea 363f 14c5 f2bd bb1d 9a3d
000000f0: 0e54 a43e 34a3 29bf 40ab f93e bc50 88be
00000100: b49b 303e 7c77 77be cc76 d0be 8b00 6e3d
00000110: e4b5 d03d 6359 a03e 2ea7 1dbe ebe1 bd3e
00000120: a262 c5bd a4e1 9dbd 3f8d 103e 3e06 a5be
00000130: 5308 b4be 131a 29bd 15da 24bc 8e11 f8be
00000140: 949c 85bd 77fb ca3e c3b4 b7be 7c6f b23d
00000150: d2ea 18be 9d6b e8be 902a bf3e 9df9 9e3e
00000160: 5f5a 40be a432 a93d 29ab ee3e 663b 903e
00000170: 7eb0 9fbe fabf 023e 9e34 51bd 0a9c 90be
00000180: 549d afbe ccd6 e13e 3c1d 453e ce1a ad3e
00000190: f0fd c8be a829 0dbe e154 7bbc 7172 25be
000001a0: f834 ca3e 4caa 263e 82ba 713e 8def 5cbe
000001b0: 6a7d 823d 2ff0 943e 0145 ddbe be0f 743e
000001c0: 5fc3 a03c 246e a93e e7e3 74be c3ad b03e
000001d0: d5c8 94bd 6be1 b73e f42c 20be 4df4 d73e
000001e0: 7330 74be 18db 4e3e 95c4 0cbf ecfa adbe
000001f0: e825 9a3e 3a99 10be 4f41 4e3e 92d6 bfbe
00000200: 810d bf3f 6636 14bf 5300 6fbf 9285 77bf
00000210: ed28 25bf f4a2 e0be 463e 8e3e a229 063e
00000220: 1a58 3abe 454e ef3e 880f d3bd 9bc8 ba3d
00000230: c103 83be 2708 b13e 73b1 943d f3f0 6c3b
00000240: 992c a53e f129 463b df80 7ebf 3afb 69bf
00000250: 5994 be3c 703c 823d 638c 3bbe 357e 80bd
00000260: 6d9b 4abf 9fd5 953f 7799 273f 39c1 93bd
00000270: 49fe 233f cf5e a8bf 7c8e fdbe fb6d 1a3b
00000280: bf33 923e 5b50 a03f 1af8 6fbe af97 dd3b
00000290: 0f68 553e e3e1 7a3d 42f8 2e40 f732 6bbf
000002a0: f082 e4bd 1bd9 7d3e 50bb a53f 47af 0ac0
000002b0: c524 a7bf aa91 4d3f 2327 40bf 6db0 f3bd
000002c0: 4141 b13e 276a 58bd f84f b4be 3837 9cbc
000002d0: 07de edbe 397c 55bd 45f7 a63f f4fc 19bd
000002e0: b5a8 033e 6ed0 a93e f598 8ebf 6c8b 56bd
000002f0: 2148 0a3f 5077 743e 6ccb d53e a7d9 313d
00000300: e9e7 c03f 0815 9b3f eb21 123e 3668 ff3e
00000310: 64cc 24bf 35a3 3cbf 6be4 923d 283a c23d
00000320: 77cb 1b3f 8500 6a3f 3045 a9be db69 083e
00000330: e334 b3be 6aa2 57bf ed1b efbe f55b ee3d
00000340: b6e9 90bf 078c 453e 7183 d0bf 9efc 0cbd
00000350: cf54 123e b0cc be3e c056 fc3e 3034 70be
00000360: c016 a83d 64ee fdbe 0ce1 5e3f 27f6 96be
00000370: d501 5d3d adb1 5c3f dd37 0f3e 933b ed3b
00000380: dcdd ccbe 9948 463e 1b5a 39bf 30d1 b0be
00000390: 58c3 a9bd 8ea4 7b3e 07dc c63e bd6d a13e
000003a0: 796c b1be cc50 943f 06ed 0e3f 2111 88bf
000003b0: 3057 853f f326 8e3f fc27 e0bd a02f b53e
000003c0: c02f 173e d2fd 88be 80db 0cbd 1366 c7bc
000003d0: 3809 15bf 20d4 ffbd 05ca 57bd f6a0 e9bd
000003e0: 0445 7e3e de5e 58bd 1828 32be ba4a 0a3d
000003f0: 6f85 fc3e 15dd 833c 6bcd 833e 1834 043e

bias f4 [64]
-0.24725166 -0.33958885 -0.16922806 0.18629362 0.14797974 -0.44415683 0.19604087 0.36060145
-0.33377722 0.44690537 -0.47560167 0.30280527 -0.025992883 0.48741072 0.19775061 0.10588458
-0.121501625 0.33678174 0.35380375 -0.44057852 -0.52747554 -0.048410427 -0.4376739 -0.2497018
-0.28565007 0.52136415 -0.15356408 -0.28588536 0.4714081 0.5052063 -0.06234392 -0.4932662
-0.28380468 0.04744785 -0.120443866 -0.1820902 0.3039738 0.54475063 0.1067205 0.27578998
-0.38188842 -0.010947506 -0.59925854 -0.29689738 0.3741698 0.5046164 0.43052936 -0.25335127
0.07449966 0.50947493 0.011566601 -0.35207322 0.0265645 0.5520384 -0.40521997 -0.17589276
-0.11631964 0.24541318 -0.068598405 -0.33914715 -0.01741861 -0.46321008 0.08099205 -0.5026736
00000000: 8a2f 7dbe 97de adbe 1f4a 2dbe c1c3 3e3e
00000010: 0088 173e 8668 e3be f0be 483e c1a0 b83e
00000020: d9e4 aabe c8d0 e43e 1082 f3be 4b09 9b3e
00000030: 07ef d4bc e68d f93e 237f 4a3e 04da d83d
00000040: d8d5 f8bd a86e ac3e c425 b53e 8293 e1be
00000050: a308 07bf 034a 46bd cb16 e0be d4b1 7fbe
00000060: ba40 92be 1f78 053f e73f 1dbe 915f 92be
00000070: 675c f13e 3355 013f 575c 7fbd 638d fcbe
00000080: d94e 91be ad58 423d 46ab f6bd da75 3abe
00000090: 74a2 9b3e c774 0b3f 4790 da3d 5834 8d3e
000000a0: e186 c3be 2b5d 33bc 0269 19bf ef02 98be
000000b0: 2f93 bf3e 8a2e 013f 586e dc3e 42b7 81be
000000c0: 4793 983d f36c 023f d781 3d3c f142 b4be
000000d0: cb9d d93c 6352 0d3f fe78 cfbe 3b1d 34be
000000e0: fe38 eebd 984d 7b3e 527d 8cbd b2a4 adbe
000000f0: 79b1 8ebc df29 edbe 29df a53d 38af 00bf

weight f4 [1, 64]
1.3445911 1.0429823 -1.209176 -1.291483 0.8735357 1.0495219 1.1038682 -1.056638
-1.4752835 -1.0524185 1.0431168 -1.055522 1.0701741 -1.0120454 1.088679 -1.3392714
0.7291558 0.8338779 -1.1011012 1.1998153 -1.3224769 -1.3652886 1.0451978 -0.9369565
-0.98158836 1.1954 1.0336047 -1.2070539 0.9534126 -0.97633624 -1.1869717 1.0506979
-0.88183194 1.5906934 0.89013094 0.9998534 -1.0463388 -1.0494453 -0.7679704 0.8876483
1.0379128 0.867511 1.0170069 0.9979567 -1.2307818 -1.060559 -0.85052603 1.3904026
0.71280915 -1.0337731 0.7575971 1.0417016 -0.65796155 -1.0303936 1.0500768 -1.599845
-1.3724494 -1.0314268 -0.2710289 1.3643432 0.84110576 0.9432524 0.78252524 1.0150766
00000000: 901b ac3f 7280 853f 47c6 9abf 514f a5bf
00000010: 09a0 5f3f bc56 863f 8e4b 8d3f ea3f 87bf
00000020: 17d6 bcbf a6b5 86bf da84 853f 581b 87bf
00000030: 77fb 883f b48a 81bf d559 8b3f 3f6d abbf
00000040: f4a9 3a3f 0679 553f e2f0 8cbf 8c93 993f
00000050: ec46 a9bf c7c1 aebf 0bc9 853f 62dc 6fbf
00000060: 6049 7bbf de02 993f 294d 843f be80 9abf
00000070: d912 743f 2cf1 79bf b0ee 97bf 457d 863f
00000080: bdbf 61bf d79b cb3f 9fdf 633f 64f6 7f3f
00000090: 6eee 85bf 3954 86bf b599 44bf eb3c 633f
000000a0: 54da 843f 3315 5e3f 482d 823f 177a 7f3f
000000b0: 428a 9dbf 66c0 87bf 13bc 59bf b6f8 b13f
000000c0: a97a 363f ad52 84bf e2f1 413f 7a56 853f
000000d0: 2b70 28bf f0e3 83bf eb68 863f b9c7 ccbf
000000e0: 6cac afbf cb05 84bf 4dc4 8abe cca2 ae3f
000000f0: b552 573f fd78 713f 9353 483f 08ee 813f
