Reinforcement learning/new/data_plot/InmoovGymEnvPPO/InmoovGymEnvPPO_s1/pyt_save/model.pt (torch_old, 49067 bytes, 12 tensors)

log_std f4 [3]
-3.1635456 -3.2970402 -3.1477702
00000000: 8877 4ac0 b502 53c0 1175 49c0

weight f4 [64, 3]
0.86348647 -0.5201408 -0.26069355 0.81588763 -0.83850324 0.674761 -0.5620178 0.6256437
-0.31122398 -0.19298215 0.06052046 0.06817786 1.4819374 -0.73804975 -0.13880503 -0.15520996
-0.0053558694 -0.004688646 0.66083866 0.28468373 -0.34551802 -0.8244085 -0.02591101 -0.5886857
0.09662505 -0.09093614 0.47829494 0.53006893 -0.8138779 0.48107466 0.3411517 0.61512715
0.54239595 -0.77498966 -0.637946 -0.49900857 0.8648559 -0.103272505 0.39766058 -0.98881584
1.0346504 -0.36410782 0.8834365 -0.06847635 -0.5476112 1.2768731 -0.7351869 0.3286961
-0.2028016 -0.15253931 -0.9520996 -0.96640635 0.6905978 -0.32904544 0.7841439 0.5347263
-0.077251 -0.8725026 0.43420106 0.30157575 -0.63571066 0.66504735 0.7051103 1.1928302
-0.8101684 -0.1875004 0.28970775 -0.12543188 -0.7999785 -1.1923889 0.58419096 -0.1396524
0.5701038 0.110840455 0.27473202 0.06700094 0.24512152 0.5633297 -1.0590395 0.36367548
-0.5428752 -0.8061172 0.40542164 -0.024344347 0.71768796 -0.50986725 -0.65755814 0.6321981
-0.2727379 0.40096593 0.40280187 -0.5674246 -0.07746351 0.5177921 -0.49900985 -0.466189
0.19561972 0.13836531 -0.28375745 -0.7367534 0.90278053 -0.068388835 0.35431144 0.32420716
-0.6410608 -1.0929425 0.8247125 0.04546892 1.2094951 -0.19137883 0.041533493 0.7110933
0.54548883 -0.42472684 0.03688719 0.59815806 0.78325856 0.5997265 -0.47756553 -0.63706636
-0.48256984 0.104715936 0.59276986 -1.5335796 0.8065515 -0.49172112 -0.6958973 -0.1237524
0.47376597 1.3032398 -0.58007765 0.420991 0.5151361 0.43640918 0.8006218 0.55123043
0.53669655 0.45687664 -0.50902796 -0.5873724 -0.37343225 -0.16644113 -0.46157283 0.32436377
-0.18223341 0.13290937 0.4685264 0.17452171 0.48257527 0.7227946 -0.6023812 0.78887016
-0.08992456 0.070526995 -0.7090743 -0.62098885 -0.3090948 -0.39767173 0.76577836 -0.22973658
-0.5290727 0.49726307 0.17917216 0.31973413 -0.29129773 0.2897935 -0.33776748 -0.030072192
-0.74830335 -0.2993475 -0.34803286 0.46432006 0.08068749 0.12289936 0.5661615 0.65103203
0.6725613 0.07283226 -0.56527275 0.7553201 -0.18757232 -0.10924711 -0.8757254 -0.19436646
-0.49461353 0.95449084 -0.66971266 -0.52939767 0.102893196 -0.8447198 0.5494195 -0.32217944
00000000: 730d 5d3f f327 05bf a079 85be 03de 503f
00000010: 26a8 56bf 23bd 2c3f 66e0 0fbf 2f2a 203f
00000020: c058 9fbe 1d9d 45be 4de4 773d d5a0 8b3d
00000030: 20b0 bd3f d4f0 3cbf e822 0ebe 5cef 1ebe
00000040: 4a80 afbb 37a3 99bb b92c 293f 11c2 913e
00000050: bde7 b0be 6f0c 53bf 5443 d4bc 1bb4 16bf
00000060: 5be3 c53d ba3c babd 13e3 f43e 99b2 073f
00000070: 4d5a 50bf 6b4f f63e 70ab ae3e f978 1d3f
00000080: 76da 0a3f b965 46bf 6e50 23bf 0d7e ffbe
00000090: 3267 5d3f 8980 d3bd 2b9a cb3e 0923 7dbf
000000a0: 6d6f 843f 576c babe e528 623f 543d 8cbd
000000b0: 3f30 0cbf 9470 a33f 3535 3cbf db4a a83e
000000c0: 39ab 4fbe 4433 1cbe cdbc 73bf 6866 77bf
000000d0: 04cb 303f a578 a8be a8bd 483f d3e3 083f
000000e0: c635 9ebd 555c 5fbf 9a4f de3e 2368 9a3e
000000f0: efbd 22bf 8b40 2a3f 1c82 343f a9ae 983f
00000100: 3267 4fbf 1b00 40be 9354 943e 3771 00be
00000110: 64cb 4cbf 33a0 98bf 8a8d 153f 0a01 0fbe
00000120: 53f2 113f 5200 e33d ada9 8c3e ca37 893d
00000130: 2301 7b3e 6036 103f 9b8e 87bf ac33 ba3e
00000140: def9 0abf b25d 4ebf 6d93 cf3e cc6d c7bc
00000150: 66ba 373f a986 02bf bb55 28bf bcd7 213f
00000160: 4da4 8bbe 684b cd3e 0c3c ce3e bd42 11bf
00000170: 30a5 9ebd 068e 043f 387e ffbe 53b0 eebe
00000180: 8950 483e a3af 0d3e a848 91be df9b 3cbf
00000190: a01c 673f 720f 8cbd 4f68 b53e 7bfe a53e
000001a0: 901c 24bf 8ae5 8bbf 5c20 533f 9e3d 3a3d
000001b0: bcd0 9a3f d0f8 43be 061f 2a3d 360a 363f
000001c0: 28a5 0b3f cc75 d9be 0617 173d e320 193f
000001d0: a283 483f ad87 193f 7883 f4be c816 23bf
000001e0: 6513 f7be 4f75 d63d c4bf 173f 564c c4bf
000001f0: 297a 4e3f dfc2 fbbe 5326 32bf e671 fdbd
00000200: 7491 f23e 90d0 a63f f87f 14bf 228c d73e
00000210: f6df 033f 0671 df3e 8df5 4c3f 701d 0d3f
00000220: f264 093f bceb e93e a84f 02bf 0a5e 16bf
00000230: 8332 bfbe 8b6f 2abe 4653 ecbe 0213 a63e
00000240: 659b 3abe 6519 083e b1e2 ef3e d2b5 323e
00000250: 1b14 f73e 1109 393f a835 1abf 65f3 493f
00000260: 5e2a b8bd 7570 903d e585 35bf 20f9 1ebf
00000270: ac41 9ebe a19b cbbe 0d0a 443f 1140 6bbe
00000280: 4f71 07bf 4499 fe3e e878 373e 31b4 a33e
00000290: fa24 95be d05f 943e dcef acbe f559 f6bc
000002a0: cf90 3fbf 1344 99be 5d31 b2be 5cbb ed3e
000002b0: 7c3f a53d a9b2 fb3d f6ef 103f 09aa 263f
000002c0: fa2c 2c3f 1429 953d b7b5 10bf a85c 413f
000002d0: f512 40be f3bc dfbd 8a2f 60bf 0008 47be
000002e0: fc3d fdbe 8359 743f 4a72 2bbf 9b86 07bf
000002f0: abb9 d23d 8f3f 58bf c2a6 0c3f b4f4 a4be

bias f4 [64]
-0.23776007 0.0583793 0.39494085 -0.406776 0.17061926 0.33790588 0.54758584 -0.34018224
0.13059023 -0.43107712 0.49053448 -0.22628564 0.3300645 0.020540545 -0.061383136 -0.011843397
0.08815628 0.25161734 0.051792122 0.16350512 -0.45795247 0.31704584 0.44389102 0.44146982
0.34594423 -0.3916501 -0.19183412 0.5177978 -0.38931274 0.5000022 -0.4590272 -0.36548015
0.27023312 -0.37411898 -0.122903384 0.33430743 0.3396671 0.51398927 -0.10690073 -0.39550415
0.54853034 -0.08772008 -0.20164631 0.1344123 -0.37508568 0.35043287 0.3485778 -0.4525054
-0.40552807 -0.04433915 0.24050239 -0.019540463 -0.27650318 0.0069780443 -0.5054479 -0.40128395
-0.35403275 0.45239547 0.5205976 -0.17860208 0.016968852 0.22878437 0.08499694 -0.2532649
00000000: 6077 73be 221f 6f3d b035 ca3e f244 d0be
00000010: d1b6 2e3e 0002 ad3e 962e 0c3f 5e2c aebe
00000020: 72b9 053e 24b6 dcbe 5627 fb3e 6cb7 67be
00000030: 37fe a83e a544 a83c e26c 7bbd cf0a 42bc
00000040: 488b b43d fdd3 803e fa23 543d e36d 273e
00000050: bf78 eabe d553 a23e af45 e33e 5508 e23e
00000060: 9a1f b13e 5d86 c8be 2a70 44be 668e 043f
00000070: 0054 c7be 2500 003f 9d05 ebbe 3720 bbbe
00000080: ff5b 8a3e 868c bfbe c5b4 fbbd 582a ab3e
00000090: d9e8 ad3e cd94 033f c5ee dabd 857f cabe
000000a0: 7c6c 0c3f 96a6 b3bd 5f7c 4ebe 61a3 093e
000000b0: 3b0b c0be f06b b33e ca78 b23e caae e7be
000000c0: 60a1 cfbe f89c 35bd 4246 763e 5213 a0bc
000000d0: d391 8dbe 14a8 e43b 0965 01bf 1775 cdbe
000000e0: c843 b5be 61a0 e73e e245 053f 77e3 36be
000000f0: 4302 8b3c 7346 6a3e e012 ae3d f0ab 81be

weight f4 [64, 64]
0.06936241 0.039828096 0.0058207237 -0.03609839 0.109320894 0.13390581 -0.042827856 0.09337299
0.0723859 -0.112907484 0.09610149 -0.14325449 0.14391437 -0.019421032 0.094040625 -0.01313784
-0.036745537 0.11466463 0.031466622 -0.04699419 -0.1099654 -0.001815351 -0.043747324 0.011707467
0.0038608427 0.03647341 0.08338845 0.04618742 -0.047426462 -0.035656072 -0.13135006 0.09073522
0.003140346 0.025533376 0.008481724 -0.06482124 0.09370702 0.103928916 0.10668205 -0.08275738
-0.032465685 0.020180454 -0.11074499 -0.06817771 0.012419831 -0.00048329856 0.0019108667 -0.063071765
-0.041513614 0.026172707 -0.08787128 0.05710578 -0.009682726 0.08657418 -0.039762903 -0.054172028
-0.1510822 -0.018755335 0.10824906 -0.14893162 -0.122885354 0.08490544 0.0035277044 0.027039811
0.01537686 0.0034689473 -0.039243735 -0.041728854 0.07851078 -0.05214894 -0.06234893 0.030235607
-0.13883674 -0.029779986 0.055989113 0.039461672 0.11529572 -0.1265998 0.18256022 0.019634109
0.011586275 -0.097932965 0.104477234 -0.05596677 -0.08697033 -0.06169312 -0.09423026 0.10049649
-0.02377632 -0.02593184 -0.079765566 -0.08374652 -0.0735914 -0.07631822 0.081172965 0.04959304
-0.024979033 -0.06388696 0.19759503 0.06035946 0.12261046 0.046573617 -0.0031956472 0.023203826
-0.10388492 -0.16693233 0.018001163 0.046031624 0.07325415 0.00763678 -0.1586937 -0.069188744
0.038282063 -0.07629879 -0.1363249 0.118500985 -0.04132971 -0.14385703 0.079735585 0.040118534
-0.048736107 0.109566994 0.058152176 -0.030930338 0.08575655 -0.1824602 -0.008966688 -0.038160086
-0.089956336 0.050312832 0.059729114 0.020794151 -0.03886247 -0.022429304 0.043914005 0.072154865
0.05008253 -0.094238505 0.15527396 -0.061785433 0.12594475 0.10397696 0.15697694 0.031693622
-0.1767814 0.10111102 0.11779648 -0.08233394 -0.018043917 -0.11689794 -0.06329431 -0.08430917
0.110878184 -0.012437508 -0.055095688 0.06117921 0.037247445 -0.062258925 0.020467658 0.032489784
-0.07842079 0.11863825 -0.0551575 -0.029119924 -0.08554692 0.14561032 0.21928015 0.087404884
0.023181183 0.07598628 -0.07868313 -0.08562222 0.08854498 0.028185349 -0.08386359 -0.09005425
-0.009370392 0.20189726 0.0866657 -0.24276352 0.023424687 -0.07271664 0.07962527 0.06683596
-0.13218439 0.14310631 -0.09406586 0.03641684 -0.12198092 0.0587711 -0.19632672 0.06265995
-0.048263412 -0.11757655 0.04591031 0.061837442 0.1764716 -0.015317711 0.12684852 0.089944445
-0.12299493 -0.09434443 0.05026394 -0.024558494 0.045665845 -0.17329419 0.25030416 0.09258205
0.21163966 0.05905365 -0.11059828 -0.07701203 -0.041433256 -0.03541208 0.0048852284 -0.04608884
0.108612664 0.06522534 0.13262391 0.11484847 -0.09602682 0.0334762 0.053209152 -0.073785186
0.06956419 -0.09005437 0.103412405 0.022974461 0.11414556 -0.064919926 -0.3369985 0.14024474
0.034688212 0.035869528 0.012467315 -0.03200901 -0.024710156 -0.13136286 0.096455336 0.054281477
0.07321564 -0.28079927 -0.10329998 0.23332655 -0.1368948 -0.19315557 -0.10066168 -0.053863693
-0.009564667 -0.07953106 -0.06769342 -0.17179345 0.33843413 -0.090559535 -0.02779956 0.033121742
00000000: e10d 8e3d c922 233d c5bb be3b e8db 13bd
00000010: a2e3 df3d 9b1e 093e 436c 2fbd 573a bf3d
00000020: 0f3f 943d 0a3c e7bd dcd0 c43d 4eb1 12be
00000030: 4a5e 133e db18 9fbc 5f98 c03d 1840 57bc
00000040: 7d82 16bd 4ad5 ea3d 25e3 003d fb7c 40bd
00000050: 8a35 e1bd 12f1 edba 6530 33bd add0 3f3c
00000060: 3106 7d3b 2465 153d 90c7 aa3d 052f 3d3d
00000070: 4042 42bd 1a0c 12bd a180 06be 63d3 b93d
00000080: 43ce 4d3b 5f2b d13c eef6 0a3c 00c1 84bd
00000090: 77e9 bf3d afd8 d43d 1e7c da3d b47c a9bd
000000a0: bdfa 04bd 7b51 a53c 45ce e2bd c1a0 8bbd
000000b0: 8c7c 4b3c 3c63 fdb9 0c76 fa3a c52b 81bd
000000c0: 2e0a 2abd 2568 d63c dcf5 b3bd c0e7 693d
000000d0: 4ca4 1ebc ce4d b13d 6dde 22bd 7de3 5dbd
000000e0: 4bb5 1abe caa4 99bc afb1 dd3d 8881 18be
000000f0: 51ab fbbd e7e2 ad3d 0f31 673b 9882 dd3c
00000100: 3aef 7b3c 4757 633b 0abe 20bd e0eb 2abd
00000110: 43ca a03d 209a 55bd 9761 7fbd aab0 f73c
00000120: 382b 0ebe 28f5 f3bc d754 653d 90a2 213d
00000130: 2a20 ec3d 61a3 01be 11f1 3a3e b6d7 a03c
00000140: 5cd4 3d3c 1491 c8bd 29f8 d53d 693d 65bd
00000150: 801d b2bd edb1 7cbd cbfb c0bd 1bd1 cd3d
00000160: 8fc6 c2bc 036f d4bc 215c a3bd 4c83 abbd
00000170: 17b7 96bd ba4c 9cbd 033e a63d 1222 4b3d
00000180: d4a0 ccbc 2bd7 82bd 5a56 4a3e 7b3b 773d
00000190: 311b fb3d fac3 3e3d 106e 51bb f315 be3c
000001a0: 9ec1 d4bd 4ff0 2abe 2d77 933c a88b 3c3d
000001b0: 4606 963d f43d fa3b 9a80 22be d4b2 8dbd
000001c0: a7cd 1c3d 8a42 9cbd c198 0bbe a5b0 f23d
000001d0: 5849 29bd 424f 13be 694c a33d 5553 243d
000001e0: 839f 47bd a964 e03d fa30 6e3d 9f61 fdbc
000001f0: 21a1 af3d d9d6 3abe 04e9 12bc c04d 1cbd
00000200: 073b b8bd d414 4e3d 84a6 743d 7f58 aa3c
00000210: 412e 1fbd a9bd b7bc 2cdf 333d eec5 933d
00000220: 5723 4d3d 1e00 c1bd 2300 1f3e b912 7dbd
00000230: a9f7 003e dff1 d43d 90be 203e 2cd1 013d
00000240: 2f06 35be 4b13 cf3d 483f f13d b29e a8bd
00000250: d6d0 93bc 3068 efbd 72a0 81bd 49aa acbd
00000260: 1a14 e33d b1c6 4bbc 04ac 61bd 0d97 7a3d
00000270: c790 183d 3703 7fbd caab a73c 0214 053d
00000280: 149b a0bd 9cf8 f23d d5ec 61bd e88c eebc
00000290: 3933 afbd df1a 153e fa8a 603e 5501 b33d
000002a0: 77e6 bd3c b29e 9b3d 9f24 a1bd b45a afbd
000002b0: 1257 b53d f6e4 e63c adc0 abbd 5d6e b8bd
000002c0: 4686 19bc 28be 4e3e c97d b13d 0097 78be
000002d0: 21e5 bf3c 76ec 94bd 9312 a33d 4be1 883d
000002e0: 585b 07be 768a 123e 9aa5 c0bd d329 153d
000002f0: 22d1 f9bd f7b9 703d df09 49be dc53 803d
00000300: dbaf 45bd f9cb f0bd 730c 3c3d 4249 7d3d
00000310: f9b4 343e 23f7 7abc 94e4 013e cb34 b83d
00000320: c4e4 fbbd a737 c1bd 90e1 4d3d e52e c9bc
00000330: 1c0c 3b3d 0874 31be de27 803e a89b bd3d
00000340: 11b8 583e 3de2 713d 5a81 e2bd 7cb8 9dbd
00000350: ebb5 29bd 420c 11bd 4414 a03b a7c7 3cbd
00000360: 5170 de3d dd94 853d 90ce 073e ad35 eb3d
00000370: b6a9 c4bd 571e 093d d7f1 593d b01c 97bd
00000380: ac77 8e3d 6d6e b8bd e2c9 d33d f034 bc3c
00000390: 26c5 e93d bdf4 84bd 118b acbe 519c 0f3e
000003a0: 3a15 0e3d edeb 123d b643 4c3c e11b 03bd
000003b0: f46c cabc fc83 06be 608a c53d 4156 5e3d
000003c0: 15f2 953d ecc4 8fbe f18e d3bd 28ed 6e3e
000003d0: 272e 0cbe 93ca 45be b627 cebd 2da0 5cbd
000003e0: 1fb5 1cbc 2ee1 a2bd d9a2 8abd 9fea 2fbe
000003f0: 3d47 ad3e 4777 b9bd e7bb e3bc aaaa 073d

bias f4 [64]
0.0944471 -0.011704047 0.055099074 -0.035496395 -0.08268079 0.07199846 -0.060821738 0.1064468
-0.062239364 -0.013623582 -0.03307283 -0.07209627 0.010942994 0.053161204 -0.029319255 -0.06931826
0.10257868 -0.0063352957 0.0017370085 -0.08027266 0.10528672 0.10715581 0.015569346 0.10083042
0.072176285 0.09416025 -0.064002104 -0.053668093 -0.038072843 -0.056455046 0.05719224 -0.08443491
0.04188778 0.057660677 -0.016515926 0.12962385 -0.06326864 0.046341322 0.08802555 -0.078120306
0.013236342 0.107805744 -0.08361741 -0.06618644 -0.12595005 0.08431975 0.07280226 0.022045651
0.011166901 -0.102074124 0.05942401 -0.07027726 0.07626674 -0.03506115 -0.056614347 0.08530911
0.04352305 -0.038388986 -0.07035752 -0.10475331 0.08897356 -0.055202603 0.008350823 0.07449964
00000000: 7b6d c13d 55c2 3fbc 91af 613d ab64 11bd
00000010: 8c54 a9bd ee73 933d 3720 79bd c800 da3d
00000020: b4ee 7ebd 7235 5fbc 6077 07bd 36a7 93bd
00000030: 3e4a 333c 90bf 593d ef2e f0bc bbf6 8dbd
00000040: c514 d23d 5098 cfbb 55ac e33a fe65 a4bd
00000050: 90a0 d73d 8174 db3d 9216 7f3c 2e80 ce3d
00000060: 29d1 933d 17d7 c03d 8913 83bd 13d3 5bbd
00000070: 45f2 1bbd 683d 67bd 6942 6a3d 36ec acbd
00000080: 8592 2b3d 9a2d 6c3d 684c 87bc 1dbc 043e
00000090: fd92 81bd 66d0 3d3d bd46 b43d 8afd 9fbd
000000a0: 3edd 583c 42c9 dc3d 9b3f abbd c28c 87bd
000000b0: 0df9 00be d5af ac3d 5a19 953d 1599 b43c
000000c0: 61f5 363c 3d0c d1bd 9766 733d 86ed 8fbd
000000d0: bd31 9c3d 489c 0fbd 72e4 67bd 8bb6 ae3d
000000e0: 3a45 323d c53d 1dbd 9a17 90bd e788 d6bd
000000f0: c537 b63d 201c 62bd e4d1 083c 4493 983d

weight f4 [3, 64]
-0.037772726 -0.12123941 -0.12125178 0.037741333 -0.048956268 0.034505498 0.041889206 -0.04951592
0.07277663 0.02778288 -0.066413954 -0.04234446 0.076124005 0.23650807 0.1340188 -0.061718713
-0.102273904 0.06399915 0.1041753 0.087343745 -0.09615232 0.03787492 -0.011563658 0.0609211
-0.08076152 0.01398076 -0.04235954 0.075803705 -0.056102566 0.103716105 -0.00789744 0.033185083
-0.1004805 0.13619414 0.020936467 -0.16509822 0.024040148 0.09235824 0.0542667 0.07858278
-0.070371464 -0.099711135 -0.061292443 -0.07462785 0.10834212 0.06536261 -0.15037644 -0.15478435
-0.032616436 0.02959158 0.043475773 0.024936885 -0.1002039 0.18586925 0.24657126 -0.090820454
-0.07283281 0.098932825 -0.054606594 0.030895539 0.019327188 -0.082357146 0.15533179 -0.069980964
-0.092569746 -0.045136053 -0.19039637 0.07030762 -0.13444434 0.11247476 -0.2709842 -0.010308698
0.038507625 0.11542747 0.0658474 -0.039062306 0.12814474 -0.27174753 -0.112757504 -0.040618956
-0.13438638 -0.1099639 0.04608349 -0.1294805 0.13449948 -0.02838458 -0.10085216 0.16318062
-0.07233562 0.05342532 0.12572537 0.13265644 0.060599986 -0.0938358 0.06569357 0.07771951
-0.01389086 -0.11613736 -0.088058904 -0.17159376 0.051700633 -0.055349205 -0.15708041 0.07018266
-0.053625524 -0.2190995 -0.11865654 0.008721863 -0.08294078 0.031203568 -0.12363367 -0.08332375
0.042601835 0.18748455 0.11133401 0.01698171 -0.079849355 -0.025951998 0.06748145 0.079965025
-0.12471565 0.194201 -0.082954444 -0.1101656 0.043975115 0.1160197 0.2717044 -0.09318588
-0.116771236 0.120791465 -0.2079725 0.19633587 0.101421386 0.01605285 0.19797121 -0.037835017
0.11088944 0.19236372 0.16434649 0.04513348 0.08865124 -0.01615174 -0.25829908 0.07768077
0.0013288404 0.013925922 0.08219692 0.095291086 -0.13665456 -0.008236473 -0.20497718 -0.03631188
0.06715776 -0.10195745 -0.039931607 -0.053880643 0.14013793 -0.13113724 -0.023347562 0.009837069
0.029303817 0.21976188 -0.004472905 -0.071608774 0.10143988 0.06677472 0.030546801 -0.05185901
-0.07283791 0.086181074 -0.08761687 -0.17136659 0.09142094 0.109969586 0.1380737 0.06718972
0.017656066 -0.28748703 -0.09709938 0.10829457 0.040878963 -0.08732737 0.2694277 -0.0038820517
-0.014491309 -0.18488938 0.043578696 0.042555824 0.081349775 0.045932688 0.0034633214 0.06368698
00000000: 93b7 1abd 5e4c f8bd da52 f8bd a896 1a3d
00000010: 5e86 48bd a355 0d3d 0494 2b3d 35d1 4abd
00000020: ea0b 953d ec98 e33c 0a04 88bd 6271 2dbd
00000030: e7e6 9b3d 2c2f 723e 393c 093e c3cc 7cbd
00000040: fb74 d1bd fd11 833d dc59 d53d 47e1 b23d
00000050: 82eb c4bd bb22 1b3d 7f75 3dbc 6788 793d
00000060: 4c66 a5bd 8f0f 653c 3281 2dbd f93e 9b3d
00000070: cecb 65bd 1c69 d43d 4464 01bc 15ed 073d
00000080: b8c8 cdbd 7a76 0b3e f482 ab3c 820f 29be
00000090: d8ef c43c 5126 bd3d c246 5e3d 02f0 a03d
000000a0: ea1e 90bd 5a35 ccbd c90d 7bbd 7cd6 98bd
000000b0: 79e2 dd3d d5dc 853d 48fc 19be ca7f 1ebe
000000c0: d098 05bd 0b6a f23c a713 323d 7048 cc3c
000000d0: b437 cdbd 8254 3e3e 2d7d 7c3e 1300 babd
000000e0: 5e29 95bd 4b9d ca3d 2aab 5fbd a418 fd3c
000000f0: 0d54 9e3c ddaa a8bd 4c0f 1f3e 2e52 8fbd
00000100: 3595 bdbd 95e0 38bd 44f7 42be 71fd 8f3d
00000110: c7ab 09be 2b59 e63d 71be 8abe d0e5 28bc
00000120: 2cba 1d3d 3d65 ec3d 00db 863d ccff 1fbd
00000130: 6038 033e 7e22 8bbe 68ed e6bd 1060 26bd
00000140: 959c 09be c134 e1bd 0bc2 3c3d 8996 04be
00000150: 3bba 093e c786 e8bc 948b cebd d218 273e
00000160: b324 94bd 82d4 5a3d 27be 003e 17d7 073e
00000170: b137 783d fc2c c0bd 5a8a 863d 682b 9f3d
00000180: 7d96 63bc 6dd9 edbd 3a58 b4bd 46b6 2fbe
00000190: 0bc4 533d d9b5 62bd b0d9 20be edbb 8f3d
000001a0: 70a6 5bbd 9f5b 60be 3302 f3bd 25e6 0e3c
000001b0: dbdc a9bd a09e ff3c a633 fdbd a4a5 aabd
000001c0: 437f 2e3d f3fb 3f3e 1603 e43d 3a1d 8b3c
000001d0: 0f88 a3bd 4999 d4bc b733 8a3d b4c4 a33d
000001e0: eb6a ffbd a0dc 463e 05e4 a9bd 819e e1bd
000001f0: 401f 343d bd9b ed3d d71c 8b3e 3dd8 bebd
00000200: c225 efbd 8461 f73d bef6 54be 450c 493e
00000210: 04b6 cf3d 4481 833c f7b8 4a3e e4f8 1abd
00000220: 011a e33d fffa 443e 724a 283e e2dd 383d
00000230: c88e b53d a750 84bc c73f 84be 1817 9f3d
00000240: 7c2c ae3a 8d29 643c dc56 a83d f927 c33d
00000250: 2cef 0bbe 46f2 06bc 8ae5 51be c4bb 14bd
00000260: 028a 893d 11cf d0bd 538f 23bd f3b1 5cbd
00000270: 5180 0f3e d748 06be 6343 bfbc a82b 213c
00000280: 8f0e f03c 4209 613e 7291 92bb 9fa7 92bd
00000290: b6bf cf3d 2fc1 883d 493d fa3c 1d6a 54bd
000002a0: 0b2c 95bd b47f b03d 7970 b3bd b97a 2fbe
000002b0: e73a bb3d bc37 e13d 3163 0d3e c49a 893d
000002c0: 74a3 903c 8031 93be 0adc c6bd 8bc9 dd3d
000002d0: b370 273d b1d8 b2bd 6df2 893e 056a 7ebb
000002e0: f56c 6dbc a453 3dbe 937f 323d 044f 2e3d
000002f0: b69a a63d ea23 3c3d e4f8 623b 526e 823d

bias f4 [3]
0.061569 0.047394395 0.10032067
00000000: c72f 7c3d a020 423d ec74 cd3d

weight f4 [64, 3]
1.0629731 0.8753222 0.88683045 -0.40563843 -0.1956591 2.864535 2.1618664 -0.9067841
1.3835998 0.17326121 -1.6170367 0.07558215 2.1817274 -1.0859061 1.2832574 2.1584156
-0.76053005 1.9136915 0.8855269 -1.1105864 0.19857937 0.59149796 -0.41436502 -1.4087589
1.151367 -0.3081501 0.62550575 0.17024001 0.4055646 -1.5981778 1.3459253 1.8920519
0.09768622 0.6158726 -0.86680007 0.0047523463 -2.3761551 -1.3455613 -0.012512943 0.590268
1.3087069 1.2931451 -0.4942018 -0.5284914 -0.88958037 1.8703333 1.4770167 0.30057818
1.3208886 0.5583415 0.6044671 -1.0421718 0.42330065 0.51514596 0.15881008 0.8058621
0.8262454 1.2510442 0.5587633 1.4119602 -0.68181527 -1.8469797 -1.0110362 -1.383645
0.95674026 -0.6421106 -0.25710094 -1.4579672 -0.011192101 -0.6162777 -0.8769707 -2.018061
-1.5753663 -0.69241196 -1.2403003 1.0543768 0.48279643 -1.4261645 0.67469245 -0.40694308
-2.2617736 0.53687674 -1.1901512 0.09399355 1.858854 -1.4757272 1.6770467 1.5252033
-1.0066106 1.2539686 -0.10746527 -0.591753 -0.6360777 -0.19894496 -0.81469107 -0.61844075
-0.75055534 1.2673512 1.6343137 -1.7502686 0.7057443 -0.91359 1.4158295 -0.061511405
-0.20693567 1.6795807 1.2654289 0.26018828 1.4016321 -0.7208 1.3061322 1.6424997
-0.8082757 0.47142297 -1.6600703 1.033436 1.1023755 -0.4437362 -0.42042357 -0.5108647
1.2854043 -1.3095849 0.9398976 1.5794417 1.7623322 0.324421 0.21842733 -0.90392405
2.5263321 -0.4082825 -1.6817362 -1.1324552 1.0640767 -0.44240016 0.49207085 -1.0920767
0.7230941 0.6487032 2.0367186 1.2986177 0.26868373 -1.0576451 -0.4454083 -0.63978
0.16979246 1.7397741 0.9113289 -1.0467051 1.2019731 -1.3748312 1.3714181 -0.68584
1.4178098 0.7009478 1.3688419 0.82071906 2.1253085 0.6372756 -1.4187226 1.3936682
1.0179393 0.08585102 0.2241732 -0.50975746 0.29949614 -2.3813636 -0.19186859 1.0267872
-1.6240427 -0.31113806 0.021641625 -0.6986426 0.21258807 -1.8020809 -1.2817981 -0.26304156
-0.55171406 0.3430345 -0.70132893 -1.9364036 0.22139508 -0.12539129 -1.0023159 -0.11231968
-1.534077 -1.6074722 -0.14448966 -0.56661683 -0.06169228 1.2511445 0.29251087 -0.28385386
00000000: 810f 883f 1e15 603f 5207 633f d7af cfbe
00000010: dc5a 48be 8b54 3740 055c 0a40 0123 68bf
00000020: cc19 b13f 636b 313e 0ffb cebf d0ca 9a3d
00000030: 6ca1 0b40 f9fe 8abf c741 a43f 7b23 0a40
00000040: 19b2 42bf d8f3 f43f e4b1 623f b227 8ebf
00000050: 6458 4b3e 696c 173f a727 d4be 3652 b4bf
00000060: fe5f 933f dac5 9dbe 2521 203f 6653 2e3e
00000070: 2aa6 cf3e 1791 ccbf 4847 ac3f c22e f23f
00000080: b70f c83d d4a9 1d3f 9ce6 5dbf 92b9 9b3b
00000090: ed12 18c0 5a3b acbf 1603 4dbc ce1b 173f
000000a0: b583 a73f c785 a53f 0508 fdbe 364b 07bf
000000b0: 8abb 63bf 1567 ef3f e20e bd3f 62e5 993e
000000c0: e112 a93f 78ef 0e3f 5bbe 1a3f e365 85bf
000000d0: ddba d83e 9be0 033f 1c9f 223e fb4c 4e3f
000000e0: d284 533f 3722 a03f 1d0b 0f3f 1dbb b43f
000000f0: 728b 2ebf d569 ecbf a269 81bf 481b b1bf
00000100: eeec 743f 5c61 24bf bca2 83be ab9e babf
00000110: 135f 37bc 60c4 1dbf 2781 60bf e927 01c0
00000120: 9aa5 c9bf e941 31bf 29c2 9ebf d2f5 863f
00000130: 1831 f73e 8f8c b6bf a5b8 2c3f d85a d0be
00000140: e6c0 10c0 c170 093f e056 98bf b17f c03d
00000150: eeee ed3f a1e4 bcbf 77a9 d63f dd39 c33f
00000160: 9ed8 80bf 0b82 a03f c016 dcbd 207d 17bf
00000170: fdd5 22bf 3ab8 4bbe 988f 50bf 2252 1ebf
00000180: 6524 40bf 9038 a23f 3131 d13f cd08 e0bf
00000190: a9ab 343f 09e1 69bf e739 b53f 62f3 7bbd
000001a0: f2e6 53be 80fc d63f 93f9 a13f 6637 853e
000001b0: ae68 b33f 5986 38bf 572f a73f 6e3d d23f
000001c0: 28eb 4ebf 5a5e f13e 2f7d d4bf a147 843f
000001d0: a41a 8d3f 6431 e3be c241 d7be 07c8 02bf
000001e0: 2188 a43f 7aa0 a7bf 219d 703f 252b ca3f
000001f0: 1a94 e13f 821a a63e 6aab 5f3e 9167 67bf
00000200: 6daf 2140 670a d1be 2243 d7bf 4bf4 90bf
00000210: aa33 883f 4682 e2be b6f0 fb3e 2bc9 8bbf
00000220: b21c 393f 6a11 263f 9959 0240 1b39 a63f
00000230: ea90 893e ea60 87bf 8f0c e4be 9fc8 23bf
00000240: 13de 2d3e ebb0 de3f da4c 693f 6ffa 85bf
00000250: 41da 993f 78fa afbf a18a af3f 3693 2fbf
00000260: cb7a b53f 5171 333f 3636 af3f a51a 523f
00000270: 0e05 0840 7e24 233f b498 b5bf b863 b23f
00000280: d64b 823f a9d2 af3d a98d 653e 777f 02bf
00000290: 8f57 993e 4368 18c0 3379 44be c36d 833f
000002a0: a2e0 cfbf 7d4d 9fbe c749 b13c 3eda 32bf
000002b0: b0b0 593e 96aa e6bf f611 a4bf 62ad 86be
000002c0: 223d 0dbf 38a2 af3e 4b8a 33bf 13dc f7bf
000002d0: 64b5 623e 9366 00be e34b 80bf dc07 e6bd
000002e0: a35c c4bf a6c1 cdbf 19f5 13be cd0d 11bf
000002f0: 0bb1 7cbd 8125 a03f fcc3 953e 4b55 91be

bias f4 [64]
-0.34916154 0.06310782 0.054439127 0.38622466 0.35623613 0.55547404 0.5276778 0.23314467
-0.43703344 -0.16383916 -0.064272866 -0.49164975 0.39880523 -0.005483467 -0.26748192 -0.04121485
-0.55153185 0.3438572 -0.3428047 0.14893796 -0.021224447 -0.27881962 0.3352328 -0.33477825
0.3879862 -0.12226991 -0.18358038 0.32271358 0.29945767 0.39357278 0.4130882 -0.10568243
-0.18081243 -0.5679424 0.13460028 0.03902139 0.33722028 0.2981085 -0.12545806 -0.27529648
0.43181694 -0.008890819 0.02852972 -0.0948285 -0.7162876 0.47603378 -0.09100691 0.30772406
0.09248688 -0.42496112 0.51988167 0.13864693 -0.30025592 -0.30696452 -0.43272814 0.4821909
0.29628998 -0.16142182 0.33678234 -0.21813165 0.32138878 0.05704908 -0.51372814 -0.34977567
00000000: 4dc5 b2be ac3e 813d 90fb 5e3d 3dbf c53e
00000010: 9564 b63e 8c33 0e3f e415 073f 7abd 6e3e
00000020: d9c2 dfbe 74c5 27be 7ea1 83bd 84b9 fbbe
00000030: 3330 cc3e a8ae b3bb 64f3 88be e7d0 28bd
00000040: 3131 0dbf 0d0e b03e 1984 afbe 3183 183e
00000050: e4de adbc 72c1 8ebe a2a3 ab3e 0e68 abbe
00000060: 21a6 c63e a668 fabd 7ffc 3bbe b73a a53e
00000070: 8452 993e 5f82 c93e 4c80 d33e 0870 d8bd
00000080: e526 39be ac64 11bf a8d4 093e e5d4 1f3d
00000090: 23a8 ac3e ada1 983e 1478 00be a9f3 8cbe
000000a0: 1c17 dd3e ccaa 11bc 29b7 e93c 7235 c2bd
000000b0: a05e 37bf b3ba f33e d561 babd 028e 9d3e
000000c0: c369 bd3d 8194 d9be f716 053f 76f9 0d3e
000000d0: 25bb 99be 742a 9dbe 8b8e ddbe bae1 f63e
000000e0: 52b3 973e c34b 25be bc6e ac3e e75d 5fbe
000000f0: 128d a43e 4cac 693d b083 03bf cc15 b3be

weight f4 [64, 64]
0.17842907 0.11381618 -0.23197223 0.1155174 -0.25748214 -0.31707954 -0.2788064 -0.5072885
0.41258714 -0.08744608 -0.031514216 0.47308862 0.08979046 -0.0390109 0.21301724 -0.06587159
0.25342909 -0.30060542 0.43653125 -0.22741392 0.007712739 0.34662065 -0.14069007 0.13612972
-0.15976602 0.04951075 -0.1340692 -0.20323054 -0.15601479 -0.3055404 -0.3976873 0.26664814
0.518693 0.23124619 -0.23878692 -0.08533158 -0.14530803 -0.37513134 0.24693705 0.35729456
-0.24490185 -0.15608272 0.090994 0.36293533 0.4226366 -0.21341515 -0.09614252 -0.38069648
-0.36986217 0.19774598 -0.26071638 -0.13569796 0.12371207 0.07539167 0.40852758 0.22211851
0.025072709 0.25398752 -0.32614297 0.061310004 -0.39679462 0.1892846 0.37378246 0.035960894
0.068636216 0.035388406 -0.2768076 0.20771535 -0.23437625 -0.36464322 -0.38325998 -0.46903604
0.24679954 -0.013224273 0.1309703 0.520875 0.026110547 -0.24793425 0.39215428 -0.13623153
0.38455555 -0.31644 0.32549003 -0.1495746 0.19429836 0.2976453 -0.007949807 0.14026707
-0.2786977 -0.0476655 -0.16237183 -0.39701086 -0.2948913 -0.2566476 -0.5605677 0.40611154
0.45139807 0.32997805 -0.19338873 -0.20183814 -0.35785753 -0.32735652 0.26375806 0.2529682
-0.2247278 -0.18048607 -0.010431971 0.224741 0.45480618 -0.30843583 -0.1016527 -0.40736428
-0.41095832 0.23934656 -0.2822234 -0.3324088 0.028675571 0.00097175664 0.26949257 0.1585613
-0.10479473 0.21323209 -0.29883784 0.055177342 -0.41402942 0.007333224 0.33470365 0.08589879
-0.13008015 -0.02169865 0.11435165 -0.18960492 0.3266358 0.1923709 0.20940202 0.4303944
-0.16745476 -0.05533989 0.097271085 -0.339771 -0.1248811 0.1490737 -0.16356976 0.15794958
-0.3106229 0.101875305 -0.25334412 0.24724036 -0.06353113 -0.16901653 0.15072758 -0.13165411
0.15940817 0.107188426 0.08732764 0.18343829 0.08032143 0.36449382 0.3774737 -0.2659792
-0.22695728 -0.34087047 0.3094264 0.043583114 0.2696094 0.32064572 -0.08352166 -0.20711142
0.1676809 0.007891635 -0.11421846 -0.25910833 -0.27545196 0.2691612 0.13774376 0.13053294
0.22935005 -0.252139 0.21969739 0.176481 0.053894352 -0.11186266 -0.17263466 -0.05056512
-0.07988985 -0.051324897 0.23335418 -0.05031257 0.45481053 -0.001637019 -0.19665086 -0.12986101
0.2072411 0.04821763 -0.28402779 0.26363814 -0.23406708 -0.31007025 -0.3160232 -0.41651335
0.35831803 -0.029829327 -0.010355058 0.46017817 0.14509282 -0.09771001 0.1496279 0.018665481
0.36084366 -0.26584512 0.270394 -0.20504935 0.109407134 0.38437372 0.11260543 0.33217236
-0.20057438 -0.079072684 -0.046318207 -0.3423584 -0.19775546 -0.32861075 -0.35271746 0.3685496
0.443529 0.38302994 -0.16078524 -0.31934857 -0.21946362 -0.16209412 0.28585666 0.16863395
-0.3380791 -0.0671795 0.06373716 0.2610898 0.24524783 -0.3378748 0.04744673 -0.14308032
-0.30269676 0.32287586 -0.17756432 -0.111980505 0.13091579 0.027678419 0.39788574 0.0725979
0.12273166 0.22351955 -0.15399995 0.064779185 -0.45513296 0.026051382 0.30125 -0.062505625
00000000: 1cb6 363e 7518 e93d 218a 6dbe 6394 ec3d
00000010: b3d4 83be 4058 a2be b6bf 8ebe a9dd 01bf
00000020: 9f3e d33e ee16 b3bd 0d15 01bd ac38 f23e
00000030: 10e4 b73d e5c9 1fbd 3121 5a3e afe7 86bd
00000040: 75c1 813e f4e8 99be 0681 df3e 32df 68be
00000050: 25bb fc3b 4378 b13e 0f11 10be 9765 0b3e
00000060: b499 23be c9cb 4a3d 7049 09be ab1b 50be
00000070: 57c2 1fbe cb6f 9cbe ab9d cbbe 1b86 883e
00000080: 10c9 043f cdcb 6c3e 8f84 74be 53c2 aebd
00000090: a1cb 14be 3711 c0be 11dd 7c3e 50ef b63e
000000a0: 8dc7 7abe 26d4 1fbe 105b ba3d a9d2 b93e
000000b0: d363 d83e 8089 5abe 5fe6 c4bd a6ea c2be
000000c0: 935e bdbe ec7d 4a3e 9e7c 85be 68f4 0abe
000000d0: c15c fd3d f366 9a3d 872a d13e 0973 633e
000000e0: 4865 cd3c a70a 823e 36fc a6be 3320 7b3d
000000f0: aa28 cbbe d2d3 413e 6a60 bf3e bb4b 133d
00000100: 2591 8c3d 6ff3 103d bab9 8dbe 55b3 543e
00000110: 5400 70be 84b2 babe a73a c4be 7e25 f0be
00000120: 05b9 7c3e 9faa 58bc 141d 063e 1058 053f
00000130: c9e5 d53c 7ae2 7dbe 72c8 c83e 4780 0bbe
00000140: 77e4 c43e 6c04 a2be a1a6 a63e 152a 19be
00000150: 26f6 463e f764 983e e83f 02bc 2ca2 0f3e
00000160: 77b1 8ebe e63c 43bd cd44 26be 0245 cbbe
00000170: fefb 96be 5067 83be 5d81 0fbf daed cf3e
00000180: a61d e73e e2f2 a83e b207 46be a8ae 4ebe
00000190: 1a39 b7be 469b a7be 4c0b 873e 0c85 813e
000001a0: 0b1f 66be 57d1 38be dcea 2abc 8122 663e
000001b0: 5bdc e83e 4deb 9dbe 4a2f d0bd 0d92 d0be
000001c0: 2169 d2be 4417 753e 967f 90be 7c31 aabe
000001d0: 08e9 ea3c 7cbd 7e3a eefa 893e e55d 223e
000001e0: 9f9e d6bd 8359 5a3e 4601 99be a301 623d
000001f0: aafb d3be 8b4b f03b 475e ab3e b4eb af3d
00000200: bb33 05be 5ec1 b1bc 3331 ea3d cb27 42be
00000210: cf3c a73e e1fc 443e 7c6d 563e a85c dc3e
00000220: 4379 2bbe 15ac 62bd 1036 c73d 77f6 adbe
00000230: aac1 ffbd c7a6 183e d57e 27be 89bd 213e
00000240: f709 9fbe 00a4 d03d 52b6 81be 942c 7d3e
00000250: 9c1c 82bd ab12 2dbe 5558 1a3e 56d0 06be
00000260: e53b 233e 9b85 db3d d5d8 b23d 3fd7 3b3e
00000270: 907f a43d ef9e ba3e 3c44 c13e 6d2e 88be
00000280: 7d67 68be 9386 aebe 236d 9e3e 3584 323d
00000290: 3e0a 8a3e ad2b a43e 670d abbd 0415 54be
000002a0: 8bb4 2b3e eb4b 013c 5eeb e9bd d9a9 84be
000002b0: 0a08 8dbe 7fcf 893e b30c 0d3e 6daa 053e
000002c0: bdda 6a3e 5d18 81be 5af8 603e 6fb7 343e
000002d0: 53c0 5c3d 4018 e5bd 24c7 30be 5f1d 4fbd
000002e0: 4a9d a3bd 0e3a 52bd 66f4 6e3e 8e14 4ebd
000002f0: eddc e83e 3e91 d6ba d85e 49be 49fa 04be
00000300: 0337 543e d97f 453d 176c 91be 94fb 863e
00000310: 48af 6fbe 87c1 9ebe cbcd a1be 3d41 d5be
00000320: 7675 b73e a25c f4bc 43a8 29bc 799c eb3e
00000330: 3693 143e 301c c8bd 0e38 193e 5ae8 983c
00000340: 80c0 b83e da1c 88be 1571 8a3e 75f8 51be
00000350: d910 e03d a2cc c43e ad9d e63d 7f12 aa3e
00000360: 5f63 4dbe dcf0 a1bd 29b8 3dbd 9a49 afbe
00000370: 6880 4abe ab3f a8be 6297 b4be 88b2 bc3e
00000380: 3c16 e33e 801c c43e e3a4 24be a881 a3be
00000390: 12bb 60be 00fc 25be ce5b 923e 61ae 2c3e
000003a0: b418 adbe 6895 89bd a188 823d 90ad 853e
000003b0: 3f22 7b3e edfd acbe 8157 423d a683 12be
000003c0: 12fb 9abe fc4f a53e 6cd3 35be 0956 e5bd
000003d0: ca0e 063e dabd e23c aeb7 cb3e 35ae 943d
000003e0: bd5a fb3d 4fe2 643e 2ab2 1dbe f3aa 843d
000003f0: 3007 e9be b569 d53c 713d 9a3e f302 80bd

bias f4 [64]
-0.16523792 -0.36104348 0.24508569 -0.383774 -0.29528645 0.31215915 -0.2808645 0.03530453
0.21761955 -0.31372777 -0.44905058 -0.053538896 -0.165682 -0.20671381 -0.30838194 0.1471863
0.08009415 -0.17970093 0.13877025 0.27202007 0.13936111 0.24994306 0.34418115 -0.14954032
0.059110086 0.31260437 -0.09134088 -0.2589917 0.2007099 0.22807331 -0.34698707 -0.43063977
-0.40454358 0.23027354 0.3313237 0.23620743 0.35332358 0.38204327 -0.33338246 0.11888378
-0.28232288 0.10096973 -0.02366674 -0.091567405 0.29270318 -0.019251427 -0.2960552 0.13032648
-0.15412326 0.024076173 -0.017473256 0.32521507 -0.21606459 -0.09363826 -0.28635412 -0.15780012
-0.18667303 0.051376663 -0.26292068 0.18260606 -0.36269972 -0.19879587 0.2835717 -0.047252674
00000000: 2134 29be b1da b8be bef7 7a3e 077e c4be
00000010: c92f 97be 53d3 9f3e 79cd 8fbe 7c9b 103d
00000020: a9d7 5e3e eda0 a0be f5e9 e5be 9a4b 5bbd
00000030: 8ba8 29be c9ac 53be 3de4 9dbe 01b8 163e
00000040: 6708 a43d 8503 38be ca19 0e3e 3746 8b3e
00000050: aeb4 0e3e 13f1 7f3e 8338 b03e 1921 19be
00000060: 6b1d 723d ae0d a03e ed10 bbbd 8f9a 84be
00000070: e586 4d3e 0d8c 693e 4aa8 b1be d17c dcbe
00000080: 5620 cfbe d4cc 6b3e 43a3 a93e 5ce0 713e
00000090: d4e6 b43e 2d9b c33e 1bb1 aabe 5779 f33d
000000a0: a08c 90be 38c9 ce3d c0e0 c1bc b187 bbbd
000000b0: 31dd 953e 2bb5 9dbc 8c94 97be 4e74 053e
000000c0: 7dd2 1dbe 653b c53c 1324 8fbc 9782 a63e
000000d0: 0940 5dbe 6bc5 bfbd 029d 92be 5b96 21be
000000e0: 3727 3fbe 5670 523d 8a9d 86be 15fd 3a3e
000000f0: c7b3 b9be 2591 4bbe 4f30 913e 058c 41bd

weight f4 [1, 64]
0.5200494 0.50927156 -0.611106 0.5376584 0.5453228 -0.578108 0.5447789 1.007451
-0.51183707 0.52091956 0.50363433 0.5370383 -0.7214084 0.54102814 -1.0308465 -0.97710294
1.0102507 0.5973192 0.805627 -0.57134783 0.7791934 -0.6094337 -0.57612664 0.5249595
0.6948517 -0.626191 0.5578613 0.51705164 0.7259704 -0.50759584 0.62069464 0.50329256
0.5222534 -0.5419824 -0.56285536 0.9092244 -0.5373403 -0.5295497 0.54326135 -0.99918216
0.555198 0.9070022 1.0268549 0.47183168 -0.5709256 0.76187676 0.5697053 1.0357891
-0.7651543 -0.6246483 -0.75009173 -0.58036745 0.5929854 -0.76374507 0.5446116 -0.5678596
0.8067004 0.5586494 0.53659284 -0.54717964 0.5638882 0.56243163 -0.52521753 -1.080451
00000000: f521 053f 9f5f 023f 7171 1cbf fba3 093f
00000010: 469a 0b3f e3fe 13bf a176 0b3f 28f4 803f
00000020: c107 03bf fc5a 053f 2eee 003f 587b 093f
00000030: 39ae 38bf d280 0a3f c7f2 83bf 6b23 7abf
00000040: e54f 813f e9e9 183f 923d 4e3f da43 12bf
00000050: 3879 473f d903 1cbf 097d 13bf bf63 063f
00000060: cde1 313f 0e4e 20bf 00d0 0e3f 7f5d 043f
00000070: 32d9 393f cdf1 01bf d8e5 1e3f c8d7 003f
00000080: 66b2 053f 5cbf 0abf 4a17 10bf eec2 683f
00000090: 228f 09bf 9290 07bf 2d13 0b3f 67ca 7fbf
000000a0: 7521 0e3f 4c31 683f fb6f 833f ec93 f13e
000000b0: 2e28 12bf 5b0a 433f 35d8 113f bd94 843f
000000c0: 27e1 43bf f3e8 1fbf 0306 40bf f692 14bf
000000d0: e4cd 173f cc84 43bf aa6b 0b3f 3f5f 11bf
000000e0: eb83 4e3f a603 0f3f 265e 093f f713 0cbf
000000f0: fa5a 103f 85fb 0f3f a874 06bf 384c 8abf
